web/public/models/kuhn_policy.onnx (onnx, 43497 bytes, 11 tensors)

policy.mlp_extractor.policy_net.0.weight f4 [64, 10]
000000 6c ab 1e be 4c 18 53 bb 11 b1 24 3e 87 61 9b 3d
       -0.1549508 -0.0032210527 0.1608317 0.07586961
000010 d3 5b 07 bf d8 cb 93 3d 35 9b cc 3e ce 22 7a be
       -0.5287449 0.072166145 0.39962164 -0.2442734
000020 19 22 96 3d ce f2 40 3e b0 1a 00 3e de 34 c1 3c
       0.07330722 0.18842623 0.1251018 0.02358478
000030 dd 4f 8c be 00 58 07 3d 7a 9e b8 3e 48 cf 06 be
       -0.2740468 0.033042908 0.36058408 -0.13165009
000040 3c cd 83 3e f3 a0 b0 3d e5 c5 4e 3e 8b 53 18 be
       0.2574252 0.086244486 0.20192678 -0.14875619
000050 99 d0 d7 3e c8 a0 25 3e e5 10 ef bd 7d 57 a2 bd
       0.42151335 0.16174614 -0.11673144 -0.07926843
000060 46 c2 02 3e 1d 08 ae be 6b 18 9f bd ca b7 90 3c
       0.12769422 -0.33990565 -0.07768329 0.017665762
000070 38 1f 2d 3e 6f 32 bf 3d 16 c2 4d bd 91 5d 27 3e
       0.1690644 0.09335791 -0.050233923 0.16344287
000080 e1 23 bf be f4 d6 b6 bd 81 ff 80 3e 2a ee 8b be
       -0.3733206 -0.08927718 0.25194934 -0.27330142
000090 77 a1 2f be ee f5 20 be 5e a2 0d bc be 59 b5 3d
       -0.17151438 -0.15718815 -0.008644668 0.088550076
0000a0 f8 74 df be 6c 36 d1 bd 03 e2 3e 3e d0 c3 85 be
       -0.43643928 -0.10215458 0.18640904 -0.26125956
0000b0 78 d4 28 be 35 0b b7 3e 4b 96 bd 3a 57 36 28 3d
       -0.164873 0.35750738 0.0014464346 0.041067448
0000c0 6b c9 95 3b 1d 53 3f bd 5d 4b ba be 4e ea 22 bc
       0.00457113 -0.046710122 -0.36385623 -0.009943558
0000d0 84 b8 51 be c7 95 16 3e dc ab 34 bd bf 5b d1 3d
       -0.20480543 0.14705573 -0.04410921 0.10222577
0000e0 3c a9 91 bd bd 43 1d 3d f9 bf de 3a 34 16 0d bd
       -0.07112357 0.03839468 0.0016994468 -0.034445003
0000f0 09 a7 4b bd 68 3d b7 3c 9d 8a ca be c4 66 81 be
       -0.049719844 0.022368148 -0.3955888 -0.25273716
000100 a6 be 3a 3e ef 1e 94 be 80 90 e3 bd 11 76 e1 bc
       0.18236789 -0.2892985 -0.111115456 -0.027522119
000110 1c ac 40 bd 2d 32 87 3e 64 a0 a6 bd 48 c4 01 3e
       -0.047039136 0.2640547 -0.08136061 0.12672532
000120 c6 14 e8 3e ea c9 16 3e 50 d6 9a be 10 a3 09 bd
       0.4532835 0.14725462 -0.30241632 -0.033602774
000130 fd b1 84 be 73 ad 01 bd 36 01 06 3d b4 fb 18 bd
       -0.25917044 -0.031659555 0.032716 -0.037349418
000140 4a 7d 9c be 2e 3e 33 be f9 e0 8e 3d 89 14 d1 3d
       -0.30564338 -0.17504188 0.06976504 0.10208995
000150 1d 2c 91 bd 2e f4 b6 3d a0 75 5f 3e fc 60 5b bd
       -0.07088492 0.08933292 0.21822214 -0.05355929
000160 e8 1b 2f 3e e0 fd 0b 3e 55 39 86 3c 03 ee 57 be
       0.17100489 0.13671064 0.01638476 -0.21086888
000170 88 92 90 3d b1 53 fa bd 05 05 be bd e0 af fd 3d
       0.070591986 -0.12222994 -0.09278301 0.12387061
000180 6b dd 4c 3c 1c c8 34 be a1 0c c5 bd ae 40 c1 bd
       0.012503962 -0.1765446 -0.096215494 -0.09436165
000190 71 1b b4 3e e4 94 bc 3e 69 f7 5e bd 6b 34 08 3e
       0.35177186 0.36832345 -0.054435167 0.13301246
0001a0 27 b9 f3 bc e2 01 5c be 99 b5 0c bd 37 c8 cb be
       -0.029751373 -0.21485093 -0.034352873 -0.3980119
0001b0 ca ab 37 bd 1b 0a 33 be b8 0c 33 be 93 b1 ff bc
       -0.044841565 -0.17484324 -0.1748532 -0.031212604
0001c0 0b ef 3a bb 28 d5 08 bf 55 ed 80 be 77 09 5c 3e
       -0.0028523828 -0.5345025 -0.2518107 0.21487986
0001d0 2a 2f 63 3e a1 75 2f 3e 2f 15 89 3d 42 d3 80 bc
       0.2218596 0.17134716 0.066934936 -0.015725736
0001e0 e8 3b 17 3e c3 bd cc be 9c 4b be be ac 3a f3 3c
       0.14768946 -0.39988527 -0.3716706 0.029691063
0001f0 ea a7 8a 3e de 66 27 3c e5 db c2 3d dd 55 9d be
       0.27081233 0.010217397 0.09514598 -0.3072957
000200 b5 b1 cd 3c e7 93 93 3d 84 12 4a 3d 57 17 9c 3d
       0.025109151 0.072059445 0.049334064 0.07621639
000210 b5 65 ff 3d 39 76 9c 3d 3b fe a3 3d 59 e7 62 3e
       0.12470571 0.07639737 0.08007475 0.22158565
000220 d0 e5 14 be b5 f2 57 3d ef e6 7e 3c f4 fd 95 3e
       -0.14540792 0.052721698 0.015557989 0.29295313
000230 2b 30 ae bd 2c c5 97 3e 23 29 15 3e 73 a3 59 bd
       -0.08505281 0.29642618 0.14566474 -0.053134393
000240 75 5e c6 3d 99 7f 31 3e 06 9e d9 bc 5c 3b 86 3d
       0.09685985 0.17333831 -0.02656461 0.06554291
000250 5d 79 39 be 8c 30 3a 3e 19 a6 c4 3e e5 fc bf 3d
       -0.18112703 0.18182582 0.38407972 0.09374408
000260 2f 95 c5 be 5b a4 7a 3e d1 b7 4a 3e be 61 d7 3c
       -0.3859038 0.24476759 0.19796683 0.026291724
000270 cc fb d8 be 32 8f fa 3d 1f 86 b7 be 3c c7 8d bd
       -0.42379606 0.122343436 -0.35844514 -0.069227666
000280 14 eb 0b 3e a6 fd 92 3d dd 92 c2 bd 26 ec 5c 3e
       0.13663894 0.07177286 -0.09500668 0.21574458
000290 8a 33 3f be 8a e8 c2 bd bc dc 91 bd f7 c9 21 be
       -0.18672004 -0.095170096 -0.0712218 -0.157997
0002a0 9a da 1c be 32 49 c4 3e 8d 0b cf bd b9 83 78 3e
       -0.15317765 0.38337094 -0.10109625 0.24268998
0002b0 33 98 81 3c 58 95 b1 be fb 4a 32 be 78 9e 3f 3b
       0.015819645 -0.34684253 -0.17411415 0.0029238742
0002c0 64 19 82 3d fe 7f cb 3e e2 59 8a bc c3 aa 9e 3d
       0.06352499 0.39746088 -0.016888563 0.07747414
0002d0 db a3 3f be 1a 0a 6a bd ec cd c8 3e 1b 04 9c bc
       -0.1871485 -0.05713854 0.39219606 -0.019044926
0002e0 a3 fb 90 3e fc e8 67 be d9 19 a5 3e ca 05 35 3e
       0.28316984 -0.2264747 0.32246283 0.1767799
0002f0 f7 a4 e9 bd 26 8e 9f be 1f 11 50 be b8 1b 4a 3c
       -0.11408418 -0.31163138 -0.20319031 0.01233571
000300 3b b0 66 3d 96 fd bd bc e1 60 ab 3e 9c b5 62 3e
       0.05632041 -0.023192208 0.3347235 0.22139591
000310 df d9 25 be c0 44 89 bd b7 63 86 3e b1 c8 a5 3d
       -0.16196392 -0.06702566 0.2624795 0.080949195
000320 f4 ce 93 3c f2 79 69 3d 3e ee 59 3e 94 b1 50 3d
       0.018043019 0.05700106 0.21282288 0.0509506
000330 36 78 04 be 91 71 58 3e f6 a6 bf 3e 67 4d 42 3e
       -0.12936482 0.21137072 0.3743207 0.18974839
000340 2b 11 30 be eb 1d 7f 3d 92 7d 13 3e e5 00 5a bd
       -0.17194049 0.06228439 0.1440337 -0.05322351
000350 09 dc 3f be 0d 68 d7 bd 5a a1 c1 3d 4f c8 ce bd
       -0.1873628 -0.10517893 0.094546035 -0.100967996
000360 25 eb f2 be 04 25 fa 3b 14 c7 94 3d 18 0b 3b be
       -0.47445026 0.007633807 0.07264534 -0.1826595
000370 a7 8b 31 3e 3f de 67 be 8b 0e a3 be 44 d1 38 bd
       0.1733843 -0.22643374 -0.31847033 -0.045121446
000380 de 62 64 3e 81 1b 19 bd 39 ab 26 3d c3 02 5d be
       0.2230334 -0.037379745 0.040690634 -0.21583085
000390 17 c9 e4 3d 4d a6 c9 3c 93 b5 12 3e 35 5a ea bd
       0.11171167 0.024615431 0.14327078 -0.11442987
0003a0 07 dd 80 be 5a 91 3f 3d e8 6b b2 3d b6 ca 98 be
       -0.2516863 0.046769477 0.08711988 -0.29842156
0003b0 c3 10 12 be 1a 59 f2 bd 75 2e b6 bd b3 d0 24 3e
       -0.14264207 -0.11833401 -0.0889558 0.16095237
0003c0 1b a3 27 be cf f1 b1 3d 4f 53 59 3e 5c f9 93 3e
       -0.16370814 0.086886995 0.21223186 0.28901184
0003d0 e3 b0 41 be bf e3 fb 3e f3 c9 69 3e c6 8d 89 3d
       -0.18915133 0.49197194 0.22830944 0.06716494
0003e0 75 b2 98 3e ab 1b 8a 3e 63 98 19 be 63 4e d9 bc
       0.29823652 0.26974234 -0.14999537 -0.026526636
0003f0 5a 44 a9 3e f7 03 d9 3d 52 7e 0d bd 96 df 22 be
       0.3305996 0.10596459 -0.034544297 -0.15905604

policy.mlp_extractor.policy_net.0.bias f4 [64]
000000 14 9d a0 3c 45 3a 72 bc bc 22 86 3c 55 63 97 bc
       0.01960615 -0.0147844 0.016373985 -0.018479982
000010 5d 8b 42 3d 85 3b 70 3d f5 2a f6 bc 85 00 2b 3b
       0.04749619 0.058650512 -0.03004978 0.002609284
000020 b7 4f 87 bb 0c 71 1f 3d 88 7a ba bc 98 48 4f 3d
       -0.004129376 0.03892617 -0.022763506 0.05060634
000030 c6 58 a4 bc 71 92 bd 3c 2c c1 56 3d d7 4b 50 bb
       -0.020061862 0.023141118 0.052430317 -0.0031783485
000040 d0 55 5e 3d 54 50 a8 3c 24 d8 97 bc e4 1c fa bc
       0.054281056 0.020546116 -0.018535681 -0.030531354
000050 73 a5 64 3c 63 1a 94 ba 57 90 ae bc 51 f1 29 bc
       0.013955462 -0.0011299368 -0.021309061 -0.010372476
000060 45 92 cc bc 85 f1 6f bd 85 9b 00 bd 7b 00 11 bd
       -0.02497209 -0.05857994 -0.031398315 -0.03540085
000070 35 19 d4 3b 9c 6c 61 3d 6d 89 01 3d 6f 46 a5 3c
       0.0064727315 0.05503522 0.0316252 0.020175187
000080 3e e0 3b bc 34 4f c9 bc f6 f2 9a bb bc 28 f8 bc
       -0.011467038 -0.0245739 -0.00472867 -0.030292861
000090 ef d3 fa bc 07 7b 00 3d c5 83 00 3c 72 3e b3 3a
       -0.030618636 0.031367328 0.007843916 0.0013675226
0000a0 64 96 47 3c c0 13 d1 3c 6f cb 88 bc 6e 4f 98 3c
       0.012181852 0.025522113 -0.016698567 0.018592563
0000b0 ad e8 80 3b ed 19 0c 3d 50 f1 79 bb 3c ef 7c bc
       0.003933987 0.034204412 -0.0038138218 -0.015437897
0000c0 cd 8a d8 3c 43 1a 02 bc b9 09 42 3c 64 9b 6a bd
       0.026433373 -0.007940832 0.011843138 -0.0572771
0000d0 24 8f 00 3d 48 ad 07 bd 0e b7 90 3c de 7a 15 3c
       0.03138651 -0.03312424 0.017665412 0.009123532
0000e0 ba 1d f1 3b d8 b6 b0 bb 27 f2 88 3b ce 88 12 bc
       0.00735828 -0.0053928904 0.0041792574 -0.00894375
0000f0 c6 b9 83 bd 68 5d 5e 3c 9d 89 a3 ba 44 e3 49 bc
       -0.06431918 0.0135720745 -0.0012476925 -0.012322251

policy.mlp_extractor.policy_net.2.weight f4 [64, 64]
000000 46 f9 f6 3e 94 14 6d be bc f6 8a be 41 6d 88 be
       0.48237056 -0.23152381 -0.27141368 -0.26645854
000010 8b 02 09 3e 30 3a 40 be 01 26 ab bd ae 2b 55 3e
       0.13379876 -0.18772197 -0.08356858 0.20817444
000020 3c 84 dd 3e 0a f9 7e 3e 13 f7 46 be e9 6d 84 3c
       0.4326495 0.24899688 -0.19430189 0.01616569
000030 f0 c6 91 bd 86 0d 59 bd 11 2f 9e bd f5 0d 33 be
       -0.071180224 -0.052991413 -0.07723821 -0.17485793
000040 54 d4 07 3e 55 8b 96 3e ab 56 8c 3d 3f 14 69 3e
       0.1326459 0.29403177 0.06852468 0.2276163
000050 0a 59 3d 3e a4 ea 02 bf 9a 54 b9 be 95 36 81 be
       0.18490997 -0.51139283 -0.36197358 -0.25236955
000060 27 b0 71 3e 73 66 2f 3e 35 43 5e bd 76 54 6b 3c
       0.23602353 0.17128925 -0.054263312 0.014363399
000070 72 51 1b 3e cc 1b 8d be c9 da 0e 3e f1 57 8a 3d
       0.15167788 -0.2756027 0.13950647 0.06755055
000080 72 34 03 be 1f a2 5d bd ab 4c 21 3e 5e d9 3d be
       -0.12812975 -0.05410969 0.15751903 -0.1853995
000090 1f ac 5b be e1 eb 12 be cb 64 81 3c f5 ba 2d 3e
       -0.21452378 -0.14347793 0.015795132 0.1696585
0000a0 53 6e a1 bd c2 48 dd bb 3b ba 34 be cb 9c a2 3d
       -0.07882371 -0.006753058 -0.17649166 0.07940062
0000b0 38 05 78 be ca a2 2a be 5f 25 98 be e9 41 bf bd
       -0.24220741 -0.16663662 -0.29716012 -0.09338743
0000c0 d6 e0 fd bd 8b a1 9c 3e 9e 62 59 3e f5 c7 46 3c
       -0.123964 0.30591998 0.21229026 0.012132634
0000d0 99 6b 31 bc 9a c8 40 be 85 1a b2 3d 63 80 4c be
       -0.010828876 -0.18826523 0.086964644 -0.1997085
0000e0 95 2d a6 bd b9 d2 9d be 3f 6f b5 3d 86 72 c7 bc
       -0.08114163 -0.3082483 0.08859109 -0.024346601
0000f0 41 1c a0 3e 9d 2f 86 3e 82 a6 30 bd 7f 8d 3f 3e
       0.31271556 0.262082 -0.043127544 0.1870632
000100 2f e7 81 3d f7 88 e6 bd 84 8d 4d be 72 da f1 bd
       0.06342923 -0.11256593 -0.20073515 -0.11809243
000110 91 72 dc 3b 68 2a fd bd b2 73 4a bd fa f9 e5 3d
       0.0067275246 -0.12361604 -0.049426742 0.1122932
000120 39 35 1a 3e 05 83 99 be 70 45 d0 bd dc 90 22 3f
       0.15059365 -0.29982772 -0.10169494 0.6350229
000130 9f 13 73 be 51 77 0b bd ae 56 5b 3c dc a5 cd bd
       -0.23737954 -0.034049336 0.013387365 -0.10041401
000140 f3 61 a7 3c 43 b7 a4 bd 5d 18 f4 3d 69 9c 79 be
       0.020432448 -0.08042767 0.119187094 -0.24376072
000150 1f f8 63 3e ce 2c 29 be 5c d5 c4 3d 12 52 02 3e
       0.2226262 -0.16520998 0.096110076 0.1272662
000160 2e 28 71 3e 96 7b 2f 3e 8f 41 b9 bd 70 6e 39 be
       0.23550484 0.17136988 -0.090457074 -0.18108535
000170 55 b7 97 3e 14 75 99 be ac ca 69 be d8 23 c4 3c
       0.2963206 -0.29972136 -0.2283122 0.023942873
000180 77 c5 1c be 01 a3 de be e4 2f c9 3d fc a9 85 be
       -0.15309702 -0.43483737 0.098235875 -0.2610625
000190 54 1b 22 bd e2 f6 85 3e 4f 32 ba 3e 66 21 b9 3d
       -0.039576843 0.2616492 0.36366507 0.09039573
0001a0 de 51 92 be 29 ef 94 bd 33 b6 8d be e4 c4 9b 3d
       -0.28578085 -0.07272179 -0.2767807 0.07605913
0001b0 3d e0 db 3e 70 e3 66 3e b9 c2 75 be bd f7 3e 3e
       0.42944518 0.22547698 -0.24000062 0.18649192
0001c0 d3 09 27 be 29 32 3e 3e d1 21 07 be dd b4 62 be
       -0.16312341 0.18573822 -0.13196494 -0.22139306
0001d0 e2 fa 85 bd 71 fc b2 3b 2d 71 22 be c1 4e be 3c
       -0.06541993 0.0054622223 -0.15863486 0.023230912
0001e0 74 58 f1 3d 4a ff 19 3d 48 0c 31 3e cb bf 17 be
       0.11784449 0.03759698 0.17289841 -0.14819257
0001f0 0a ea 60 3d 3a 91 f6 bc cb 4e 9b bd d0 67 0a 3e
       0.054910697 -0.030098546 -0.07583388 0.13516164
000200 74 84 0c 3e b0 2b f7 3e 90 c5 cc 3b ac 1f 42 bd
       0.13722402 0.48275518 0.006249137 -0.047393486
000210 fa ff 6c be 87 9f 1e 3e f3 f7 d5 3d 17 64 db be
       -0.23144522 0.15490542 0.10447683 -0.428498
000220 1f 2f f8 3d c4 ec 10 be 41 ca e6 b9 a0 36 9d 3d
       0.12118363 -0.14152819 -0.0004401971 0.076764345
000230 78 fd a0 3e dd 57 69 3e d1 26 16 3e c2 3c d0 bd
       0.3144338 0.22787423 0.14663245 -0.10167839
000240 98 b2 4a be c0 60 bf 3d 9f cf bc 3c 59 3e ec 3c
       -0.1979469 0.093446255 0.02304822 0.028838323
000250 6e 56 60 be 7d 06 40 3d 01 7c 98 3e f4 a9 41 3e
       -0.2190797 0.046881188 0.29782107 0.18912488
000260 44 75 4f bd 05 b5 e5 bd e1 d5 61 bd 41 d0 e4 3d
       -0.050648943 -0.11216167 -0.05513561 0.11172534
000270 de ce d3 be 7e c3 ae 3c f2 9b e5 bd 34 e5 38 bb
       -0.41368765 0.021333452 -0.11211385 -0.0028212788
000280 4a cb 94 be 7e 87 26 3e da 59 1d bd 7c 6d 95 3e
       -0.29061347 0.16262624 -0.038415767 0.29185092
000290 5a ef 4c 3e 55 e6 c8 be ad bd 07 bf 65 98 7d 3e
       0.2001318 -0.3923823 -0.530238 0.24765165
0002a0 ce c8 3b bd ee 88 26 3e 43 37 39 3e 2c bd 77 bd
       -0.0458458 0.16263172 0.18087487 -0.060483143
0002b0 d0 7a 9a 3e 90 04 cc 3d 38 4c 3e 3d fa 70 22 3e
       0.30171824 0.09961808 0.046459407 0.1586341
0002c0 f3 5e a3 3d ac 14 97 bb c4 02 a0 3d 4d 05 85 bd
       0.079770945 -0.0046106186 0.078130275 -0.06495152
0002d0 da 2e 8d 3e ef ad 80 3d a1 bc 2b bc 05 6b 8c be
       0.27574807 0.06283175 -0.010481984 -0.274254
0002e0 5f 62 13 be 51 5e 25 bd 8e c4 33 bd cc 30 b6 3e
       -0.14392994 -0.04037315 -0.04388862 0.35584104
0002f0 7e 51 41 bc 79 08 e2 be 70 e2 34 3e 5d 71 88 be
       -0.011799214 -0.4414709 0.17664504 -0.2664899
000300 bd 47 a2 3e ea 0e 8a be 26 cb 6f 3e 4e 06 b4 b9
       0.31695357 -0.26964504 0.23417339 -0.00034336973
000310 88 3d 50 3e 73 a8 9d 3e 57 54 06 3e 6a 31 28 be
       0.20335972 0.3079258 0.1311811 -0.164251
000320 0c dd 6c 3e 20 49 82 be 92 2d 1e bd c0 16 44 3d
       0.23131198 -0.25446415 -0.038617678 0.04787326
000330 e9 f2 34 be 09 33 0b 3e ed 56 29 3e 68 2b f9 bd
       -0.17670788 0.13593687 0.16537066 -0.12166482
000340 66 e3 7d 3c ed 31 ed 3d 59 d4 27 bc 7e 7a 21 bc
       0.015496111 0.11581788 -0.010243499 -0.009855865
000350 9b 52 54 bd 6c 8f 58 be 80 f7 f0 bd c1 e9 84 3e
       -0.05183659 -0.21148461 -0.11765957 0.2595959
000360 a9 9c 93 3c 78 30 6b bd 2a b0 4c 3e 9b 22 c7 bc
       0.018019037 -0.05741927 0.19989076 -0.024308493
000370 f7 5d 85 3c 8b b4 0c be 8c f5 b1 3d 9a 2e 93 3d
       0.016280157 -0.13740747 0.086894125 0.07186623
000380 82 36 c6 bc 51 aa d1 be 72 6d 0f bd f7 b6 00 3d
       -0.024195913 -0.40950254 -0.035016485 0.03142449
000390 2b 36 a2 be 35 0e 70 be f6 89 89 3e 8f 3b 27 3d
       -0.31681952 -0.2344292 0.26863068 0.040828284
0003a0 60 d7 45 3e 86 1a 0b be e5 c7 4c be b2 c8 93 3e
       0.1932044 -0.13584337 -0.19998129 0.28864056
0003b0 53 65 4a be 5f 5f 9c be a3 08 93 be e4 d0 e4 be
       -0.19765215 -0.30541512 -0.28717527 -0.4469062
0003c0 d9 7c 8c be c1 be 71 be 02 54 ef be ee e7 57 be
       -0.27439 -0.23607923 -0.4674378 -0.21084568
0003d0 af 55 cb bd 6f 81 3f bd 80 df 14 3d c9 59 4c 3d
       -0.09928452 -0.046754297 0.03634596 0.049890313
0003e0 2b ff 19 3e c6 89 ee 3d 10 13 7e 3e 4a 3f 14 be
       0.15038745 0.11647372 0.2481196 -0.14477268
0003f0 08 7f a0 bd e8 e9 67 3e 15 bb 0c be bd 30 a3 3e
       -0.07836729 0.22647822 -0.13743241 0.31873122

policy.mlp_extractor.policy_net.2.bias f4 [64]
000000 06 a9 96 3b 73 d7 db 3c 9f f9 fb bc 9d 1d bd 3c
       0.004597786 0.026836133 -0.030758677 0.02308541
000010 d3 6d 87 3c 94 b1 a7 bc b8 d6 41 bd 83 92 c1 3c
       0.01653186 -0.020470418 -0.047323912 0.023629433
000020 6c 70 58 bc 06 4c 02 3b 3b 9a 43 bd 4a 4e 0f 3d
       -0.013210397 0.001988174 -0.047754508 0.03498677
000030 43 6c 28 bc 1e 5b 1b bc 8a 63 5b 3d 53 b3 aa bc
       -0.010279718 -0.009482173 0.053561725 -0.020837462
000040 d5 a7 81 3d ad 47 91 bc d7 39 19 bc 73 11 d1 3b
       0.063308395 -0.017734373 -0.009352169 0.006380254
000050 9e e3 b8 bc a4 32 98 bc f1 ec 42 3d 0b 17 6e 3d
       -0.022569474 -0.018578835 0.047589246 0.058127444
000060 50 29 3d bd ea f3 3a 3d b5 9e e9 3c ec 38 9c ba
       -0.046181977 0.04564277 0.02851806 -0.001191882
000070 31 d5 62 3d f5 c2 78 bd fb b3 45 bc fe 90 f1 bc
       0.055379096 -0.0607328 -0.0120668365 -0.029488083
000080 d1 3c 6b 3c 0c a4 5d bc cd e1 5a bd 70 31 24 ba
       0.0143577615 -0.013527881 -0.053437997 -0.000626347
000090 07 5f c4 ba 5d 79 0a 3d bd 29 09 bd e0 a4 5f bc
       -0.0014981934 0.033807147 -0.03348707 -0.013650149
0000a0 84 71 34 bd c3 fc 36 3d e8 6f d0 bc 25 ec de bc
       -0.04405357 0.044674646 -0.025443986 -0.027212212
0000b0 d2 c5 b1 bb 28 d2 d8 bc d7 8f c8 bc 58 21 ba 3d
       -0.0054251933 -0.026467398 -0.02448265 0.09088391
0000c0 53 9c a4 bc 98 f3 ad bd f5 c0 b2 3b 86 8c 99 3c
       -0.020094072 -0.084937274 0.005455131 0.018743765
0000d0 a6 b4 04 3c 2e b4 a9 3c 0b 09 15 3d bd 08 53 bc
       0.008099711 0.0207158 0.036385577 -0.012880501
0000e0 91 51 96 bd e7 2d bf 3c 4c ad 13 3d 78 15 88 3c
       -0.07339776 0.023337318 0.03605394 0.0166118
0000f0 02 02 90 bb 4c a5 b4 3c fe e3 d5 bb ba 1e b4 bc
       -0.0043947706 0.022051476 -0.006527423 -0.021987308

policy.mlp_extractor.value_net.0.weight f4 [64, 10]
000000 e1 ad ef bc 7b 18 87 bc 1b 29 b0 bd 23 0a 6e 3e
       -0.029257717 -0.016491165 -0.0860159 0.23246054
000010 d0 51 62 3c 61 aa ec 3d 8c 43 09 bf 04 8f ab bd
       0.013813451 0.11555935 -0.53618693 -0.083768874
000020 8b a7 fa be 2a 9d b4 bb 0b ce 02 3e 7c d8 2e 3e
       -0.4895595 -0.0055118995 0.12773912 0.1707477
000030 24 9b e7 bd 34 4c 97 3e e7 bf 0b 3d 07 6b 5b be
       -0.113088876 0.29550326 0.03411856 -0.21427546
000040 0e 14 dd 3c 97 6b 23 bb 93 6b aa 3e 79 3d f4 3a
       0.026987102 -0.0024935955 0.33285198 0.0018634043
000050 b0 01 f8 3d 1a 66 ad be d6 bc d5 3d 9d 47 da 3a
       0.12109697 -0.3386696 0.10436408 0.0016653422
000060 c3 61 61 3d 4b 3c b2 3e 8f 93 9b be 8e ad 47 be
       0.055024873 0.34811625 -0.30386016 -0.194998
000070 f9 50 eb bd aa f1 9e bd d8 71 4f bd 77 d3 97 bd
       -0.11490054 -0.077609375 -0.05064568 -0.074133806
000080 13 f8 c5 3e a5 3c 18 be ec 51 81 3e 16 d4 75 be
       0.38665828 -0.14866884 0.25257814 -0.24006686
000090 a1 2b a9 be b5 ee 2b 3e b5 1c 16 be e8 a3 b9 bd
       -0.330411 0.16790278 -0.14659388 -0.09064466
0000a0 cc d5 db 3c de c8 39 3d 7f 90 fa bc 84 cf 9f be
       0.026835345 0.045357578 -0.03058648 -0.3121301
0000b0 10 38 82 be 7e ba 41 bd 87 e4 95 bd 88 7b c6 3d
       -0.25433397 -0.047296993 -0.07318979 0.096915305
0000c0 5a 75 d8 3d f6 e9 5c bd 73 9e 3a be b5 dd a8 be
       0.10569258 -0.05393406 -0.18224506 -0.3298165
0000d0 14 29 8a be 7c 15 19 bd 92 14 fe 3d 7f 97 e6 bb
       -0.26984465 -0.037374005 0.12406267 -0.0070371027
0000e0 1c e5 85 be 9d 77 94 3e 98 ca 8b bd cc 2f 2d 3e
       -0.2615136 0.28997508 -0.06825751 0.16912764
0000f0 47 5e 08 3e 41 1e 9f 3d 48 5a b0 be 30 cc 44 3e
       0.13317214 0.07769442 -0.3444388 0.19218516
000100 79 fb f0 bd 74 3d 05 be d4 cd 11 3d 72 4e 52 3e
       -0.117667146 -0.13011724 0.035596684 0.20537737
000110 1c 00 30 be a7 10 6b 3d f9 bd 27 3e 06 97 20 be
       -0.17187542 0.057388928 0.16381063 -0.15682611
000120 01 6a 88 bd 3e 2e 69 bd 46 04 98 3e 75 81 f2 bd
       -0.06660844 -0.056928866 0.2969076 -0.11841098
000130 8b 85 0a 3e 8b d4 fd 3d 0a bf e9 3c be a9 61 3e
       0.13527505 0.12394055 0.028533477 0.22037408
000140 7a 90 a6 bb ba 16 43 be d0 f9 13 bc f7 1f b4 be
       -0.005083141 -0.19051638 -0.009031728 -0.35180637
000150 25 a7 a7 bd a6 46 f7 bd fd 83 ce bc b6 28 5a be
       -0.08186177 -0.12074022 -0.025209421 -0.21304592
000160 59 cc d9 3d ce 07 fc 3d d8 8e 7b be f1 dc b3 bd
       0.10634679 0.12306176 -0.2456621 -0.087823756
000170 78 c8 28 3d d3 83 90 be 65 2f 52 3e ba 07 ff 3c
       0.041206807 -0.28225574 0.20525892 0.031131614
000180 41 47 9d 3d c7 d3 5e 3c c3 ba a1 3c 64 1f 60 be
       0.07679606 0.013600296 0.019742375 -0.21886975
000190 9d 1f 2e be da d3 43 3c 46 fe 87 3e 12 45 da 3d
       -0.17004247 0.011952365 0.26561183 0.10657705
0001a0 4e 9c a1 bc 19 0a 28 3e 88 10 65 3e 00 73 ba be
       -0.019727852 0.16410102 0.22369587 -0.36415863
0001b0 2b 1c 7c be ae 04 10 3d 3f 46 f6 3c 94 4b ef bd
       -0.2462012 0.035160713 0.030062793 -0.11684337
0001c0 81 35 89 bd 4a d7 81 3e ee 0d a2 be 54 d6 53 3e
       -0.06699658 0.25359565 -0.31651253 0.20687228
0001d0 a4 21 bf bc 7c 70 26 be b0 a8 c4 3e 33 85 18 3e
       -0.02333147 -0.16253847 0.38409948 0.14894561
0001e0 1f 8c e6 3d 5e 47 69 3c df f6 63 3e 04 6d c5 bd
       0.11257195 0.014238207 0.22262143 -0.09639934
0001f0 b8 a3 7d bc 04 06 53 3e e1 f9 5d be e3 aa 08 be
       -0.015480928 0.20607764 -0.21677352 -0.13346438
000200 8e a8 08 be 76 d7 16 be 3a 90 93 3e af a3 d0 3d
       -0.13345549 -0.1473063 0.28820974 0.1018747
000210 00 9d 97 3c b7 9b 22 3e e8 04 17 be 38 a8 f4 be
       0.01850748 0.15879713 -0.14747965 -0.4778459
000220 cd cc b9 3b 51 cd 19 be eb 7b 09 bd 61 3d 99 be
       0.005670166 -0.15019728 -0.033565443 -0.2992964
000230 43 72 be bc 00 1d ee 3d 92 63 32 3e f1 24 21 3e
       -0.023247844 0.11626625 0.17420796 0.15736748
000240 4c 5c b6 3e 34 9a 80 be 48 af 6f be 30 5a eb 3d
       0.35617292 -0.25117648 -0.23406708 0.11491811
000250 f5 36 00 3d 2c 37 5f 3d b6 3b a0 bd 2c 05 08 be
       0.03130241 0.054495975 -0.07823889 -0.13283223
000260 b7 b6 86 be df 69 89 be 4e f5 80 3e ee e5 03 bd
       -0.26311275 -0.26838586 0.25187153 -0.0322017
000270 8b 91 d8 3d 86 59 3e be 5a 8e 67 3e df 3b f6 bd
       0.10574635 -0.18588838 0.22612897 -0.12023138
000280 88 72 4f be fe 9f bc 3e e4 65 d8 3d 5c aa a9 3d
       -0.20258534 0.36840814 0.10566309 0.082844466
000290 2a 80 8e be da 4f d2 3b c5 ec 8d be fd e8 3e 3e
       -0.27832156 0.0064182105 -0.27719703 0.18643565
0002a0 18 88 21 3e d3 84 89 ba 45 03 aa bd db 3f 89 be
       0.15774572 -0.0010491855 -0.08301405 -0.2680653
0002b0 ee 9d 7d 3d 31 ab 09 be 67 85 af 3d f5 2b cc 3d
       0.06191819 -0.1344421 0.08570366 0.09969322
0002c0 b7 b6 bb 3e b2 fb fd bd 25 e3 ed 3c 1b 0a a7 be
       0.36662838 -0.12401523 0.029038975 -0.32624897
0002d0 29 fc 17 3d f9 71 d3 be a3 fc d9 3e 35 33 43 3e
       0.037105713 -0.41297892 0.4257556 0.19062503
0002e0 25 a3 8d bd f2 0b e1 be 1c c8 1b 3d 49 36 88 3e
       -0.06915883 -0.43954426 0.038032636 0.26603916
0002f0 f5 6c 30 3e 0a 28 17 3d 97 b5 43 3e 64 d1 0f 3d
       0.17229064 0.03690342 0.1911224 0.0351118
000300 87 6a 4a be 73 fc cf be 72 65 2b 3d 13 fc 4d 3e
       -0.197672 -0.4062229 0.041844793 0.2011569
000310 5e 1f f0 bd d0 6c 6a bd bd b6 ff 3d f8 dc 8d bd
       -0.11724733 -0.057232678 0.124860264 -0.06926912
000320 f5 84 81 be 86 91 64 3e 01 e2 12 3e 72 c7 04 3e
       -0.2529675 0.22321138 0.14344026 0.12966707
000330 7b d6 19 3d 92 f4 52 3e 79 0d bc bd 0f 8d fb bd
       0.03755806 0.20601109 -0.09182257 -0.12282764
000340 21 c9 29 3e 25 16 98 3d 65 d5 f6 3e 38 fc fd bd
       0.16580631 0.07426099 0.48209682 -0.124016225
000350 41 5c cd be e5 7e 63 3d 05 88 2e be bc af 39 3c
       -0.40109447 0.055540938 -0.17044075 0.011333402
000360 10 53 c7 bc 74 89 ee bd b1 c2 aa bd 6e 42 90 3d
       -0.0243316 -0.11647311 -0.08337916 0.070439205
000370 84 eb 12 3d c7 2e fb bd 0c a1 04 3e de 6b 1f bd
       0.035869136 -0.122647814 0.1295206 -0.03892123
000380 99 0a aa 3d 23 90 b3 be 31 ff f2 be 71 49 4c be
       0.083028026 -0.35070905 -0.4746032 -0.1994989
000390 64 bd 9e 3d b0 ee 28 3e eb b4 3a be 20 62 1d 3c
       0.07750967 0.16497302 -0.18233077 0.009605914
0003a0 8a a1 45 be 8e 99 38 3e b2 62 94 be ea 63 ff bd
       -0.19299904 0.18027326 -0.2898155 -0.12470229
0003b0 e4 c7 41 bd 40 31 ac be 02 9b 9a 3d eb 08 3a 3d
       -0.04730977 -0.33631325 0.07549097 0.04541866
0003c0 f7 61 f8 3d 16 3e d0 bd 3b 68 1a 3d 9c 49 42 be
       0.1212806 -0.10168092 0.03769706 -0.18973392
0003d0 e2 4d 63 3e 50 c4 bf bd a8 58 31 3d 06 c3 49 be
       0.22197679 -0.093636155 0.04329744 -0.19703302
0003e0 26 de 6a bd 45 12 24 3c ee 31 b5 be 94 c4 87 bd
       -0.057340764 0.010014121 -0.35389656 -0.06629291
0003f0 13 af 2c 3e 12 a3 7e be a5 5e da 3c e4 a2 2a be
       0.1686366 -0.24866894 0.026656458 -0.166637

policy.mlp_extractor.value_net.0.bias f4 [64]
000000 f6 65 2f bd 4a 9e 3a 3d 50 7f 8a bd 27 15 95 3c
       -0.042821847 0.045561112 -0.06762564 0.018198563
000010 1e 39 03 bd 6d 09 34 3d 92 32 d0 bc 8e 0e 1d 3a
       -0.032036893 0.0439543 -0.025414739 0.00059912435
000020 7b f2 fa bc 90 e7 53 bd 2c 1e f2 3b 76 10 94 bc
       -0.030633202 -0.051734507 0.0073888507 -0.018074255
000030 e1 30 17 3d fe a6 0e bd b8 37 61 bc f6 d8 16 bc
       0.03691185 -0.034827225 -0.013746195 -0.009207001
000040 2e 4e 98 3c c8 9a 73 3b 91 d3 f7 3c 90 19 1a 3c
       0.018591966 0.0037171114 0.03025225 0.009405509
000050 84 b0 6f 3c 16 a5 d3 3c 14 dd b0 3c ee d2 d7 bc
       0.014629487 0.025835555 0.021589793 -0.026345696
000060 9f e7 34 bd 8e 35 ec 3c 82 24 12 3d a5 b5 2f 3b
       -0.044166204 0.02883413 0.035679348 0.002681115
000070 16 09 e2 3c 6b 25 62 3d e6 55 bc bc 4d 69 6d 3d
       0.027592223 0.055211466 -0.022990178 0.05796175
000080 a4 bf 76 3d d4 e2 29 bd dc 4c 1f bc 0b 98 97 bc
       0.060241356 -0.041476086 -0.009722915 -0.018505117
000090 e1 7c 38 bc 64 52 ca bc f0 e6 00 bd 22 82 ae bc
       -0.011260242 -0.02469749 -0.03147024 -0.021302287
0000a0 ab fa 33 3d f5 02 d7 bc 9c 92 e7 3c e7 44 ee 3c
       0.043940227 -0.026246527 0.028268151 0.02908559
0000b0 4e eb c1 bc b7 b2 67 bd d6 3a 88 bd c9 2f cb 3c
       -0.023671772 -0.05656692 -0.06651847 0.02480306
0000c0 88 f2 9a 3c 31 03 8b bd 7d 25 16 bd d0 d3 20 3d
       0.018914476 -0.06787718 -0.036656845 0.0392645
0000d0 0e 32 88 3d 03 b1 c1 bd e9 97 4e bd b8 1d 4a bd
       0.06650172 -0.094575904 -0.05043784 -0.04934475
0000e0 16 ad 47 bd 20 41 12 bd 77 35 36 3d 71 1b 7e bc
       -0.048749052 -0.03570664 0.04448458 -0.015509472
0000f0 ce 57 f4 3c fe f0 03 3d 89 73 64 3d 60 6f 7d bd
       0.029827025 0.03221225 0.055774245 -0.061873794

policy.mlp_extractor.value_net.2.weight f4 [64, 64]
000000 04 dc c3 be e0 42 b4 bd 4d c9 86 bd 63 27 47 3e
       -0.38253796 -0.08801818 -0.06581364 0.19448619
000010 1a bb 62 bc b1 6e df bd af 0e d1 bd 85 ba 80 be
       -0.013838554 -0.109097846 -0.10207879 -0.25142303
000020 5c 57 6a 3d fb 03 ae 3a 35 39 97 3e 03 b7 f0 3d
       0.05721222 0.0013276333 0.29535833 0.11753657
000030 17 56 db 3d 0f 87 02 3e 62 0f 08 3e a7 da 10 be
       0.1070978 0.12746833 0.13287118 -0.14145909
000040 e7 6b 39 bd f1 12 84 3d 31 fe 71 be 28 ae cd bd
       -0.04526892 0.06448925 -0.23632123 -0.10042983
000050 3b 79 1f 3e a0 75 cf 3d 99 9f 02 be 5d 2b 1b 3b
       0.1557359 0.10129857 -0.12756194 0.002367697
000060 d1 a9 8a be bc 24 45 3e 87 ca 1e 3e dc a0 61 bd
       -0.27082685 0.19252294 0.15506946 -0.055085048
000070 37 62 7a 3e e9 53 24 3e 0c 0b c4 bd 24 44 c7 3e
       0.24451528 0.16047634 -0.095724195 0.38919175
000080 5d 69 2a bd a6 d6 a8 be c4 22 9f 3e c8 64 20 3e
       -0.04160439 -0.32976264 0.31081212 0.15663445
000090 31 b9 a5 bd d1 a6 84 3d a7 5f a9 3d 4a b2 2b bd
       -0.08091963 0.0647713 0.08270197 -0.041918077
0000a0 56 3f 50 3e fb 98 4b 3d 2b 6d d4 3d 56 26 96 3e
       0.2033666 0.04970644 0.10372385 0.29326123
0000b0 b1 35 a7 3d dc d1 90 3e 5b f0 33 be 6f aa 29 3e
       0.08164538 0.2828511 -0.17572157 0.16568922
0000c0 ed 51 e0 bb 45 b0 c2 3d 40 35 83 3e 81 e3 9d be
       -0.006845704 0.09506277 0.25626564 -0.30837634
0000d0 ab c4 70 be 73 ee 9f 3d 45 13 03 be 06 db 5f be
       -0.23512523 0.078091525 -0.1280032 -0.21860895
0000e0 c3 ee 3e bc 2e e4 2f 3c a6 b2 01 3e 2c 39 01 3e
       -0.011653605 0.010735555 0.12665805 0.12619466
0000f0 24 a3 59 3d 67 c6 08 be ec ad 9d be b3 b6 46 3e
       0.0531341 -0.13356934 -0.30796754 0.19405632
000100 70 56 b9 3e 29 c8 6a bb 55 16 8f bd d3 b7 a4 3e
       0.3619876 -0.003582487 -0.06986681 0.32171497
000110 b2 b1 4b bd 7c e8 ff 3e 3a 8e 31 3d 99 c6 ce 3d
       -0.04973001 0.4998206 0.04334853 0.10096473
000120 97 08 e6 3d 4d 47 1d 3d f8 5d 69 3e 49 ba b2 bd
       0.11232107 0.038398076 0.22789752 -0.08726937
000130 a3 54 34 be 46 8a aa be 27 f2 60 bc 73 1f 9b be
       -0.17610411 -0.3330862 -0.013729609 -0.3029743
000140 70 a6 0c be 14 d0 a5 3d 46 ea 61 3d 0e ea af bd
       -0.13735366 0.080963284 0.05515506 -0.08589564
000150 47 33 67 3b 09 ef 3b be ab 55 89 3d 68 e6 96 3c
       0.0035278366 -0.18352903 0.06705793 0.018420413
000160 79 7e 0e bd 32 2a 32 3d 54 a4 7f 3e 2c cb 1b 3e
       -0.034788582 0.04349727 0.2496503 0.15214223
000170 38 91 16 be 30 d5 19 bf 5d 8c 0f 3d c9 ea d3 bd
       -0.14703834 -0.60090923 0.03504597 -0.10347516
000180 1a 19 c8 3c 7b e1 29 bd b4 fc 4b bd 4b 82 4c bd
       0.024426032 -0.0414748 -0.049801543 -0.049928945
000190 11 33 b4 bd 88 d0 ff 3d 86 e1 35 3d 36 ac a0 3e
       -0.08798803 0.12490946 0.04440453 0.31381387
0001a0 db cb 8b 3e 52 e8 01 3e 93 cb cc bd 04 7d 7a 3d
       0.27303967 0.1268628 -0.09999766 0.06115438
0001b0 79 cd dc 3d c3 99 98 3e 01 12 93 3d 4e 0d eb 3d
       0.10781378 0.2980481 0.07181168 0.11477147
0001c0 51 d2 56 be 97 df 92 3c ca 3b 8e 3d 19 53 7a 3e
       -0.20978667 0.017928882 0.069449976 0.24445762
0001d0 3e fd 26 be 20 ec 66 be 3b d9 6c bd dc 39 af 3d
       -0.16307542 -0.22551012 -0.057824355 0.08555958
0001e0 18 64 9d 3e 62 4f b6 3a 45 bb 22 3e 2e 98 63 bc
       0.30740428 0.0013909156 0.1589175 -0.013891263
0001f0 58 f0 a4 bd e6 e6 8e bd c7 86 52 bc 5e 31 32 3e
       -0.080536544 -0.06977634 -0.012849516 0.17401645
000200 5f 91 32 3e 62 1c 5a be 4d 19 5c 3d 3c 63 ef 3d
       0.17438267 -0.2129989 0.053735066 0.11688849
000210 c2 99 6e bd 87 1b 68 be 62 a4 ae 3d 80 56 f7 3c
       -0.058252104 -0.22666751 0.08527447 0.030192614
000220 58 12 f9 3c bd 92 31 bd 40 e5 6e bd 37 aa c5 be
       0.030404255 -0.04335283 -0.0583241 -0.38606426
000230 cf e6 65 be 69 49 95 be c4 30 d4 3e b5 91 ba be
       -0.22451328 -0.2915757 0.41443455 -0.3643929
000240 86 42 d8 3d 2e 3a 94 3e dd 6b 8d 3e a2 8d 0f 3d
       0.10559563 0.28950638 0.27621356 0.03504718
000250 c6 c9 e5 bc d2 f5 a9 3d a8 74 2e 3e 03 25 b7 be
       -0.028050315 0.0829884 0.17036688 -0.35770425
000260 e4 4f 96 bb c3 8b 0a 3d 38 d5 6b 3e 3a 50 f9 bd
       -0.0045871604 0.033824693 0.23030555 -0.12173505
000270 36 2d 90 3c 6e 3c a1 3e 8b 7a 99 bd 58 72 d6 3c
       0.017599683 0.31491417 -0.07494076 0.02617757
000280 9c 7e 89 3d 76 ad 20 bc 29 d4 03 be 5f 28 ad bd
       0.06713602 -0.009806981 -0.12873901 -0.08454966
000290 31 2b 29 3d 51 01 a0 bb 86 b6 ad 3b 0e 00 c6 bd
       0.041300956 -0.0048829694 0.0053012995 -0.09667979
0002a0 7c 78 43 be 5c 25 0a be a8 e7 c7 3d 21 69 4a ba
       -0.1908893 -0.13490814 0.09760982 -0.0007721354
0002b0 81 e5 42 3e 03 cf 34 be 14 13 2b 3c e9 e1 0a be
       0.19032861 -0.17657094 0.01044156 -0.1356274
0002c0 46 8a d7 be 2b 28 c2 3d fa 00 9b 3c fd 4d 1a be
       -0.42097682 0.09480318 0.018921364 -0.15068813
0002d0 22 c0 8e bd f0 48 0e be e5 db ae 3b bd c8 24 3e
       -0.0697024 -0.13895011 0.005336272 0.160922
0002e0 ab 7d 0e 3d 94 ec 90 be a2 5e 3e be f1 f6 d1 bd
       0.034787815 -0.28305495 -0.18590787 -0.102521785
0002f0 6c 00 93 3e 90 47 21 be ee e6 87 bc fc 9d b7 3d
       0.2871126 -0.15749955 -0.016589608 0.0896568
000300 5b c5 37 be c3 e4 61 be bc d1 2c be 90 f2 21 be
       -0.17946379 -0.22059922 -0.16876882 -0.15815187
000310 0c 38 72 3c 04 a5 2c 3d 1b cd 25 be 66 71 c5 3d
       0.01478387 0.04214956 -0.16191523 0.0964077
000320 cd 44 3a be 60 85 f1 3d 96 0e 1c 3e fc bc eb 3e
       -0.18190308 0.117930174 0.15239939 0.4604262
000330 6b a2 64 be 73 d1 2a bd 69 f1 86 3e d3 1b 78 3e
       -0.22327583 -0.041703653 0.26356056 0.24229364
000340 ed 8f 9d bd 9f b0 55 3e 86 7f d1 bd 01 a8 eb 3d
       -0.07693467 0.20868157 -0.10229401 0.115066536
000350 22 a0 c0 3e 4d a6 2c be 24 43 3c bd 79 2c e8 bd
       0.37622172 -0.16860314 -0.045962468 -0.113366075
000360 8d 0e 95 3c 11 81 da bd 2b cd db bd 5c 23 c7 bd
       0.018195415 -0.10669149 -0.10732492 -0.09723541
000370 f8 fe 29 3e 0f 2d 5a be 73 c8 a9 be 29 c9 08 be
       0.16601169 -0.21306251 -0.33160743 -0.13357987
000380 6a 6e 59 3d 99 32 d9 bd 4b 96 50 3d 36 42 c1 be
       0.053083815 -0.10605354 0.05092458 -0.37745827
000390 6c 15 ee 3d f7 d1 5e be 40 f2 42 bc ee 38 14 3d
       0.1162518 -0.21759783 -0.011898577 0.036187105
0003a0 37 95 84 bd 50 44 99 bb 04 18 96 bc fb eb 35 3d
       -0.06473773 -0.004677333 -0.018321998 0.0444145
0003b0 61 57 12 3f cf 4d 73 3d 8b be c5 be 49 25 9b 3b
       0.5716458 0.059400376 -0.38621935 0.0047346693
0003c0 24 fe 98 39 7f 62 0e be 0d 04 b2 bd ee 97 81 bd
       0.0002918105 -0.13904761 -0.08692179 -0.063278064
0003d0 7f ad 34 3e d0 9c ee 3d 1e b7 14 3e 37 b9 77 3e
       0.17644309 0.11651003 0.14522979 0.24191748
0003e0 f0 51 96 bd 6a fb 71 3c e4 44 e3 bc 91 17 8d 3d
       -0.07339847 0.014769414 -0.02774281 0.068892606
0003f0 e4 c7 93 3c 1e 43 3c bd 88 79 33 3e 23 9c cb bd
       0.018039651 -0.045962445 0.17526829 -0.0994189

policy.mlp_extractor.value_net.2.bias f4 [64]
000000 d5 cf d2 3c 10 97 fc bc 0a e7 9c 3c e3 fa ff bb
       0.025733868 -0.030833751 0.019153137 -0.0078118904
000010 03 41 07 bd b3 a7 88 3c 58 0c f0 bc 6c 1c 1f 3c
       -0.033020984 0.016681528 -0.029302761 0.009711366
000020 39 b4 ff 3c 37 9a 98 bc 7f 3d 0c 3d 1d ad a6 bc
       0.031213867 -0.018628223 0.034238335 -0.020346219
000030 e2 02 21 3c e0 fe 2e 3d 20 b4 ba 3c 78 f5 a2 3c
       0.0098273475 0.042723536 0.022790968 0.01989244
000040 fe ef ed bc a8 63 9f bc 68 4b 19 bc fa 42 29 3d
       -0.029045101 -0.0194567 -0.009356357 0.04132364
000050 d9 f2 0e bd 14 69 f0 3c ea 58 60 bb 37 18 ff ba
       -0.034899566 0.02934698 -0.0034232684 -0.0019462173
000060 ad 4e 9b 3c 1b 32 c2 3c 28 e5 d9 bc 4d b2 9e bc
       0.018958414 0.023705533 -0.026598528 -0.01937213
000070 af 3d 29 bd 8c 29 23 bc 08 28 68 3d d4 49 0e bd
       -0.04131859 -0.009958636 0.0566788 -0.034738377
000080 ee b1 ef bc 9b c5 ea 3c 0b 2c 11 bd d3 b7 1d bd
       -0.029259648 0.028658679 -0.035442393 -0.038505387
000090 59 5f 36 3d 66 66 ff bc 43 55 b7 bc f5 53 83 bb
       0.044524524 -0.031176757 -0.022379523 -0.004007811
0000a0 c2 db c5 bc c2 f9 0a 3d e9 f0 17 3d 7c a5 9a bc
       -0.02415264 0.033929594 0.037094984 -0.018877737
0000b0 fb b0 f0 bc ef 54 e9 3c 94 1a e2 bc 66 69 f8 3c
       -0.029381266 0.028482882 -0.027600564 0.030323695
0000c0 6b 74 f4 3c 07 46 0d bd ee f6 56 3d a2 fe ae bc
       0.029840669 -0.03449061 0.052481584 -0.021361653
0000d0 e2 78 c8 bb 12 65 4f 3c 9b 06 2d bc 78 96 f6 3c
       -0.006117926 0.012658374 -0.010560657 0.030101046
0000e0 72 59 9c bd 6e 13 80 3c c6 6b d4 bc f8 43 7c bc
       -0.07634248 0.015634265 -0.025930297 -0.015397064
0000f0 ff cf 39 3d 4c 0a c2 3c ad 43 9c 3c ef 0c 28 bd
       0.045364376 0.02368655 0.01907524 -0.04102796

policy.action_net.weight f4 [3, 64]
000000 ad a8 c6 3d 4e 85 d5 3d 18 5b e6 bd b3 7e e5 3d
       0.09700141 0.104258165 -0.112478435 0.112058066
000010 ae 32 c2 3d 5a 88 e3 bd e0 da ec bd 42 c3 a2 bd
       0.09482323 -0.11109991 -0.115651846 -0.07947399
000020 2a d1 a7 bd 6c 9f ad bd 37 00 8f bd 33 aa f7 3d
       -0.08194192 -0.08477673 -0.06982463 0.1209301
000030 09 20 b0 3d 45 b6 a9 bd 88 18 cf 3d 54 8a bd bd
       0.0859986 -0.08286718 0.10112101 -0.092548996
000040 f0 27 e6 3d 4f eb b7 bd 8d 23 c2 3d c6 2b bf 3d
       0.11238086 -0.089804284 0.09479437 0.09334521
000050 f9 b2 d3 bd 9d b1 d5 bd cb 34 c0 3d 1c 3d d5 3d
       -0.10336871 -0.10434268 0.093850695 0.10412046
000060 09 41 c5 bd 05 95 44 3d 15 3c 8e 3d fd 5b a8 3d
       -0.09631545 0.04799368 0.069450535 0.0822067
000070 a3 1a 75 3d 1d 5f dd bd d0 aa 88 3d 74 b6 b9 bd
       0.059839856 -0.10809157 0.06673205 -0.09068003
000080 85 39 9c 3d fe 05 b0 3d 5b cc a3 bd ae 1f bb 3d
       0.076281585 0.08594893 -0.07997962 0.09136902
000090 35 4c ad 3d 88 6d 8c bd d6 5b c4 bd f9 75 bb bd
       0.08461801 -0.06856829 -0.09587829 -0.09153361
0000a0 db db f0 bd 9c 0c c7 3d a6 58 e9 bd 61 dc 98 bd
       -0.11760684 0.09719202 -0.113938615 -0.07463909
0000b0 79 83 b1 bd 32 65 ab bd e5 b4 cf bd d4 00 40 3d
       -0.086676545 -0.08368911 -0.10141925 0.04687579
0000c0 d0 3d cf bd 7e d9 f9 ba cb 5e cd 3d 2c 4e 7c 3d
       -0.10119212 -0.001906201 0.10027846 0.061597988
0000d0 7d f6 98 3d 00 10 97 bd ec f9 c4 3d ae c5 be bd
       0.07468889 -0.07376099 0.09617981 -0.09315048
0000e0 3b ed 93 3d 0d fc fa 3d 07 57 db 3d 97 52 a0 bd
       0.072229825 0.12255106 0.107099585 -0.07828253
0000f0 bf a2 c4 bd c5 f8 cf 3d e1 3c d9 bd f7 2f d3 bd
       -0.09601354 0.10154871 -0.10607315 -0.10311883
000100 9b 3d f5 bd 69 83 bb bd 49 27 ca 3d e8 3c fa bd
       -0.11974641 -0.09155924 0.09870774 -0.12218648
000110 e6 1c ed bd 3e fb af 3d ff 8b f3 3d e1 ed b1 3d
       -0.115777776 0.085928425 0.118919365 0.0868795
000120 e3 06 85 3d b2 6c cb 3d 00 59 8b bb 09 0a ed bd
       0.06495454 0.09932841 -0.004252553 -0.1157418
000130 cc 11 b8 bd 56 af c5 3d 37 dc d2 bd 08 6c ce 3d
       -0.089877695 0.09652583 -0.10295909 0.10079199
000140 6c 2b ed bd 0b 32 d2 3d 8a d0 c2 bd 4c 07 ee bd
       -0.11580548 0.10263451 -0.09512432 -0.116224855
000150 71 d0 da 3d 09 61 eb 3d 31 c9 d0 bd f0 90 ca bd
       0.10684288 0.11493117 -0.10194624 -0.09890926
000160 d4 84 d7 3d 13 05 7f 3c 2a 3c 27 bd 6d 42 c3 bd
       0.10523382 0.015565175 -0.04082886 -0.09534154
000170 82 a1 01 3d 92 ba aa 3d 02 30 81 bd 40 fd d0 3d
       0.031648166 0.08336367 -0.06307985 0.102045536
000180 80 54 a3 bd 17 45 d1 bd c5 d5 83 3c 86 04 ce bd
       -0.079751015 -0.10218256 0.016093144 -0.100594565
000190 39 1a c4 bd e7 0a a4 3d 1e c9 dc 3d d2 bb d7 3d
       -0.09575314 0.08009892 0.107805476 0.10533871
0001a0 fd ba e3 3d 98 b5 d3 bd e8 6b d7 3d eb 9c 6f 3d
       0.111196496 -0.10337371 0.10518628 0.058499258
0001b0 3d 74 da 3d 42 88 57 3d e1 aa 83 3d 23 91 a0 3d
       0.10666702 0.05262018 0.06429077 0.07840183
0001c0 41 05 e9 3d 1f 95 a4 bd 7b 07 c4 bd ef fd 00 bd
       0.11377955 -0.08036255 -0.09571739 -0.03149217
0001d0 e4 23 9f bd 38 18 b8 3d 23 64 d4 bd 86 e6 d2 3d
       -0.077705175 0.08988994 -0.10370662 0.10297875
0001e0 69 4e f0 bd 2c 86 f9 bd 53 de ef bd 6e b7 aa 3d
       -0.117337056 -0.121837944 -0.11712327 0.08335768
0001f0 c7 41 ea 3d 61 d9 d9 bd dd d8 ec 3d 45 75 ef 3d
       0.11438327 -0.10637165 0.11564801 0.11692289
000200 c7 5b 83 bd ea 98 97 bd 97 36 99 3d bc ef ab bd
       -0.064139895 -0.07402213 0.07481115 -0.08395335
000210 6e 96 6c bd c9 b5 af 3d 25 dd a5 3d 4f 3b 7b 3d
       -0.05776065 0.08579595 0.080988206 0.061335858
000220 51 d8 9d 3d a8 b0 7a 3d 45 0b c0 3d 57 dc ab bd
       0.07707275 0.06120363 0.093771495 -0.08391636
000230 53 97 88 bd d7 eb 65 3d fa 1d 88 bd b4 cd 76 3d
       -0.06669488 0.056133118 -0.066463426 0.060254768
000240 9c 63 a3 bd c5 60 5f 3d 4e fa 06 bd 73 be 87 3d
       -0.07977983 0.054535646 -0.032953553 0.06628122
000250 81 06 a6 3d 3f a1 9f 3d b4 d4 8f bd 52 18 ac bd
       0.08106709 0.07794427 -0.07022992 -0.08403076
000260 20 8e 86 3d fc c2 a5 bd 26 cd 91 bd e6 15 5d bd
       0.06570077 -0.08093831 -0.07119207 -0.053975962
000270 ab ba 9b bd 5d e7 d2 3d 3c 48 70 bd 33 ff 85 3d
       -0.076039635 0.10298035 -0.058662638 0.06542816
000280 15 57 7e bd 19 06 61 bd 67 86 c0 3d 7c c3 84 bd
       -0.062094767 -0.054937456 0.09400635 -0.06482598
000290 fe 14 8a bd 37 38 67 3d 6b 47 3e 3d cd da 6e 3d
       -0.06742285 0.056450095 0.04645483 0.058314133
0002a0 77 12 ad 3d 86 31 62 bd 5e b9 9b 3d 37 d8 95 3d
       0.084507875 -0.05522301 0.07603715 0.0731663
0002b0 ae 2f 7c 3d 42 fa d2 3d 9d e0 ba 3d 83 31 b4 bd
       0.06156891 0.10301639 0.09124873 -0.08798506
0002c0 59 28 10 3d 4b ea ba 3d dd 6b 91 bd 04 fa a2 bd
       0.03519473 0.09126719 -0.071006514 -0.07957843
0002d0 0b 17 75 bd 33 cb 3d 3d 48 71 86 bd 02 ef 8c 3d
       -0.05983643 0.046336364 -0.065645754 0.068815246
0002e0 75 80 37 3d 67 60 a5 bd 5d fe 9b bd 16 bd 7e 3d
       0.04480024 -0.08075028 -0.07616875 0.062192045
0002f0 59 04 8b 3d d5 ec 97 bd e5 41 8e 3d 2c 22 91 3d
       0.067879386 -0.07418219 0.06946162 0.07086596

policy.action_net.bias f4 [3]
000000 2a d8 c3 3c 07 e5 cb 3c b2 8c 7c bd
       0.023906786 0.024889482 -0.061657615

policy.value_net.weight f4 [1, 64]
000000 35 9d ae 3c be 34 55 bd a1 f5 9b 3d a9 04 81 3c
       0.021315197 -0.052052252 0.07615209 0.015749292
000010 e4 01 0c be 2f 57 48 3d d4 64 22 be e9 84 87 3d
       -0.13672596 0.04891127 -0.15858775 0.066171475
000020 73 85 4b 3d 56 93 40 bb 35 7d f4 3d 88 65 88 bd
       0.049687814 -0.0029384694 0.11937944 -0.066599905
000030 e2 f8 9e bd 7f 83 89 3e 36 80 78 3e fe 12 0e 3e
       -0.077623144 0.26858136 0.24267659 0.13874432
000040 d4 02 8f be 3f 61 52 bd 23 e3 42 bc 98 04 5d 3e
       -0.27931845 -0.051362272 -0.011894974 0.21583784
000050 ce e7 90 be fa 19 8c 3d 8d 95 67 be d1 82 28 3e
       -0.28301853 0.06840892 -0.22615643 0.16456152
000060 67 ae 8e 3d 28 2a c0 3d e7 64 9b bd 5d f6 8e bd
       0.06966858 0.09383041 -0.07587605 -0.06980584
000070 77 b2 91 be 33 2a ef bd 1a a3 e1 3d 00 0c de bd
       -0.2845647 -0.11677971 0.11017437 -0.108421326
000080 b2 85 10 be 85 58 fb 3d 56 e6 37 bd 55 36 3b bd
       -0.141135 0.12272743 -0.0448974 -0.045706112
000090 ba d0 66 3e 30 93 0c be 70 e8 f9 bc 06 81 b2 bd
       0.2254056 -0.13728023 -0.030506343 -0.087160155
0000a0 9e 76 29 3e fe b8 98 3d a2 39 82 3d 2c 15 15 be
       0.16549155 0.074571595 0.06358649 -0.14558858
0000b0 b7 48 ca bd 9f 1d 86 3e ec b5 b9 be d6 e9 34 3d
       -0.098771505 0.26194474 -0.36271608 0.044168316
0000c0 c9 a6 f6 3d 22 7f b4 bd d7 1b d1 3d 3d 4b 5c bc
       0.120435305 -0.08813311 0.10210388 -0.013445673
0000d0 2d b1 12 be ae 34 19 3e 9d fd c9 bc 78 35 ec 3d
       -0.143254 0.14961502 -0.024657065 0.11533636
0000e0 30 b0 4b bd 69 9e 02 bd 25 e0 41 be bb 39 46 be
       -0.049728572 -0.031889353 -0.1893316 -0.1935796
0000f0 e3 51 dc 3d c0 1e 8f 3c 4d c3 8d 3d db 78 3d be
       0.10757806 0.017470717 0.06922016 -0.18503134
