web/public/models/kuhn_policy.onnx (onnx, 43497 bytes, 11 tensors)

policy.mlp_extractor.policy_net.0.weight f4 [64, 10]
00000000: 4aa0 32be 9d7c 843b 8734 3e3e 0529 b43d
00000010: 244e 0bbf b69a a83d 4401 cc3e ce22 7abe
00000020: 024c ad3d 8f8f 3b3e a4de 0f3e d898 8d3c
00000030: 0203 99be ccec 923c d6cd c13e 87da 11be
00000040: 657f 833e f3a0 b03d edb8 3f3e 9584 11be
00000050: ebc9 df3e 3c4e 1d3e 43a1 0fbe 7dc1 c5bd
00000060: 183f 113e 8198 b3be b226 9bbd cab7 903c
00000070: 3c2f 1c3e 492e ca3d e8f1 f4bc 4a05 1b3e
00000080: 97f8 cbbe 677b d5bd 56c4 883e 8b06 91be
00000090: 6b46 31be eef5 20be d114 bfbc f0e5 be3d
000000a0: c47d e5be daa9 c5bd 7795 573e 4d84 79be
000000b0: 3d15 3abe 5343 bc3e dbf2 0c3b 5736 283d
000000c0: f549 b03c 7163 5abd 0f49 c7be 2a29 08bc
000000d0: 70da 33be 1862 223e 3d81 7ebd 62d2 e63d
000000e0: c998 8abd bd43 1d3d 5129 503c 8f07 36bd
000000f0: 91fa 01bd bdcb 723c 3e88 d7be 17c4 87be
00000100: af02 4a3e 7515 99be 0ecf e4bd 1176 e1bc
00000110: 782f 71bd 924e 893e 945a d4bd a16a 073e
00000120: c67e f53e 4b1c 213e 2160 a3be 64e7 bfbc
00000130: 70a8 83be 73ad 01bd 937e 2e3d 6ad8 36bd
00000140: cc98 a6be e3d4 2cbe 5028 c43d 5bff eb3d
00000150: 6de1 b7bd 804c cd3d ec8b 5f3e fc60 5bbd
00000160: e3f2 3b3e a6bc 033e 2c9b be3a 3eb4 4bbe
00000170: a52e bd3d 2e86 d5bd 14fa d6bd 0e9f 0c3e
00000180: 235b 593c 1cc8 34be 84b4 a0bd 74ee c5bd
00000190: 398d bb3e cc8a ba3e 33dd 9fbd 347a f33d
000001a0: d28b 35bc 6ee7 66be 305d 0bbd 37c8 cbbe
000001b0: 4c6e 6ebd 1e2d 2bbe 094e 3cbe 03b1 ddbc
000001c0: 5051 c13c 8132 04bf b518 8bbe 3005 673e
000001d0: 28f4 643e a175 2f3e 940e ad3d 9caa b8bc
000001e0: 89d5 2b3e 9104 cebe 2453 cbbe 3805 9c3c
000001f0: 6d65 933e 2584 fe36 6651 c23d dd55 9dbe
00000200: e503 783c 3611 a53d 4689 ee3c 4407 b63d
00000210: d88a 083e 657c ab3d 60e5 473d ae28 6c3e
00000220: da8b 0fbe b5f2 573d 4e41 c23c 78d5 8d3e
00000230: 2284 cdbd 2c10 9d3e de1d 313e 4b05 18bd
00000240: 4fb6 8d3d d8ff 3c3e 6a99 a2bc 5c3b 863d
00000250: edde 28be 7ca8 323e 4e0e cf3e fba6 b13d
00000260: d79b d1be 97e6 6b3e 2431 5c3e e7ca 8b3c
00000270: 8a08 d8be 328f fa3d d283 bebe 04c0 74bd
00000280: 8bf1 1c3e 006c 863d fc35 e8bd 9274 4d3e
00000290: e50d 33be e1d0 d2bd 00e3 88bd f7c9 21be
000002a0: 6d0f 2bbe 7712 c83e a4ee debd 48c6 753e
000002b0: 965c 323d 06ea a9be d99d 4bbe 92c1 753c
000002c0: 6281 813d fe7f cb3e a626 30bb 5436 873d
000002d0: 84dd 56be ae4a 54bd 1428 d33e bba3 76bb
000002e0: acea 873e 68ec 5fbe 50be a33e ca05 353e
000002f0: 8592 ccbd 350c a7be f61f 65be d976 563c
00000300: e4a3 9b3d 3df5 a8bc 87ac 9e3e e8e6 6d3e
00000310: 6d04 2dbe c044 89bd 2c0f 863e 732a 8d3d
00000320: c9cb 15bb 7df6 813d 314b 743e a8c5 843d
00000330: aac5 18be 3ba2 633e 1878 bf3e 674d 423e
00000340: a794 22be ab47 583d 75c0 273e 2006 73bd
00000350: 8e55 5abe 6d40 f3bd 9ae5 ea3d e029 e4bd
00000360: 1709 f3be 0425 fa3b ebac 743d ec05 31be
00000370: 84c0 443e b02e 6cbe 8fc5 afbe 927b 6dbd
00000380: 9ecc 773e 0ef4 44bd 8f35 2a3d c302 5dbe
00000390: 051e cc3d 0e96 083d f392 263e b388 f6bd
000003a0: cd4a 8ebe 7ecf 0d3d 992b d63d 6e5a 9ebe
000003b0: 5a1a 12be 1a59 f2bd ff8e cdbd d66c 2b3e
000003c0: 5fb8 3ebe 2237 ad3d af23 743e 7b91 973e
000003d0: fe10 56be d7b8 003f 5909 6a3e c68d 893d
000003e0: 17e8 9b3e 5bee 833e 2b36 33be 22ad b1bc
000003f0: a6fe b43e f460 ec3d 0bef 4cbd 26b6 19be
-0.17443958 0.0040431754 0.18574725 0.08796886 -0.5441611 0.08232634 0.39844716 -0.2442734
0.08461763 0.18316482 0.14049774 0.017284796 -0.29885107 0.01793518 0.37852353 -0.14243518
0.25683132 0.086244486 0.18722887 -0.14210732 0.4370874 0.15361875 -0.1402636 -0.096560456
0.14184225 -0.3507729 -0.0757574 0.017665762 0.15252393 0.098721094 -0.029900506 0.15138736
-0.39838096 -0.10423928 0.26712292 -0.28325304 -0.17312019 -0.15718815 -0.023325356 0.09321201
-0.44822514 -0.09651537 0.2105311 -0.24366875 -0.18172164 0.36770114 0.0021507058 0.041067448
0.02151964 -0.05331749 -0.38922927 -0.0083105955 -0.17563796 0.15857732 -0.06213497 0.11270596
-0.06767423 0.03839468 0.012705163 -0.044440802 -0.0317331 0.014819083 -0.42096132 -0.26516792
0.19727586 -0.29899183 -0.11172305 -0.027522119 -0.05888316 0.26817757 -0.10368839 0.1322427
0.47948283 0.15733449 -0.31909278 -0.023425765 -0.25714445 -0.031659555 0.04260118 -0.044639982
-0.3253845 -0.16878085 0.095780015 0.115233146 -0.089785434 0.10024357 0.2183072 -0.05355929
0.18354373 0.12864932 0.0014542094 -0.19892976 0.09237412 -0.10425983 -0.10496917 0.1373255
0.013266358 -0.1765446 -0.078469306 -0.09664622 0.36631182 0.3643402 -0.07805862 0.11888543
-0.011080699 -0.22549221 -0.034024417 -0.3980119 -0.058210656 -0.1671643 -0.18389143 -0.027061945
0.023598343 -0.5163956 -0.27167287 0.22560573 0.22358763 0.17134716 0.08450046 -0.02254229
0.16780676 -0.4023786 -0.3971187 0.019045457 0.2878832 7.5851735e-06 0.09488182 -0.3072957
0.015137647 0.08059923 0.029118191 0.088881046 0.13334215 0.08373336 0.048802733 0.23062393
-0.14018193 0.052721698 0.02371278 0.27701926 -0.10034968 0.306764 0.1729655 -0.037114423
0.06919538 0.18456972 -0.019848544 0.06554291 -0.1649129 0.17447084 0.404406 0.08674427
-0.4093921 0.23037182 0.2150312 0.017064525 -0.42194015 0.122343436 -0.37209946 -0.059753433
0.15326516 0.06563568 -0.11338422 0.20064 -0.17485769 -0.10293747 -0.06683922 -0.157997
-0.16705103 0.39076588 -0.10885361 0.2400142 0.043545328 -0.33186358 -0.19884433 0.014999764
0.06323506 0.39746088 -0.0026878505 0.06602159 -0.20982939 -0.051829033 0.41241515 -0.0037634212
0.26546228 -0.21867526 0.31981134 0.1767799 -0.09988884 -0.326265 -0.22375473 0.013089859
0.07599619 -0.020624751 0.30991003 0.23232615 -0.1689622 -0.06702566 0.2618345 0.06892862
-0.002285706 0.06345842 0.23856808 0.064830124 -0.14919153 0.22229855 0.37396312 0.18974839
-0.15877019 0.052802723 0.1638201 -0.059332013 -0.21321699 -0.118775226 0.11469574 -0.111407995
-0.47467873 0.007633807 0.05973522 -0.17287415 0.19214064 -0.23064685 -0.34330413 -0.057979174
0.24199149 -0.04808431 0.041554984 -0.21583085 0.09966663 0.03334623 0.16266994 -0.12037792
-0.27791443 0.034621708 0.10457534 -0.30928367 -0.14267865 -0.11833401 -0.1003704 0.16740736
-0.1862502 0.084577814 0.23841737 0.2960318 -0.2090492 0.50282043 0.22855128 0.06716494
0.30450508 0.25767788 -0.17501132 -0.021689001 0.3535053 0.1154193 -0.050032657 -0.1501089

policy.mlp_extractor.policy_net.0.bias f4 [64]
00000000: d393 d13c ad1c b8bc a933 b13b 9be5 edbc
00000010: d2ca 683d 23e4 733d 5ef4 16bd 6a88 bd3b
00000020: 91b9 823a 54fe 5d3d b453 e7bc bc70 733d
00000030: df3b b4bc 8d46 a33c 14ca 783d b86a 1cbc
00000040: 47d6 3d3d 5a02 b63c da4b 61bc 6a9a 27bd
00000050: e078 9e3c 7dec bbbb 30f1 ccbc aab3 79bc
00000060: 9da2 edbc 4bb2 6abd 51d4 01bd a520 34bd
00000070: e698 f53b c684 4a3d 2508 173d 8269 7a3c
00000080: 0c27 98bc 2128 05bd d724 abbb 0fff 18bd
00000090: d4d9 03bd beeb 093d e2e1 713c aa69 073b
000000a0: 7b1a 893c ae49 9a3c 6e54 8cbc a33b ce3c
000000b0: 4908 a03b cc67 d43c 122f 03bc 6820 93bc
000000c0: 6aa6 c23c 5b96 1cbc 512d 5c3c 8f81 8abd
000000d0: bb95 bf3c 8948 1fbd b46d f63b b954 f03b
000000e0: f6dd 343c faec e6bb 3455 573c 2a58 6bbc
000000f0: 2565 73bd 3e77 983c 96c8 d4bb 57a6 4ebc
0.025583183 -0.022474611 0.0054077697 -0.029040148 0.05683405 0.05954374 -0.03685414 0.005784084
0.0009973516 0.054197624 -0.028238155 0.059433684 -0.022001205 0.019931102 0.06073959 -0.009546928
0.04634693 0.022217918 -0.013750995 -0.040918745 0.019344747 -0.0057349787 -0.02501735 -0.015240589
-0.029008204 -0.05729894 -0.03169662 -0.043976445 0.0074950336 0.04944303 0.036873 0.015283944
-0.018573307 -0.032508973 -0.0052228975 -0.037352618 -0.03219016 0.033672087 0.014763327 0.0020662346
0.01673626 0.018833961 -0.017130103 0.025174921 0.0048838 0.0259284 -0.008006828 -0.017959788
0.023760993 -0.009557332 0.013438539 -0.067629926 0.023386827 -0.038887534 0.007520402 0.0073343185
0.011039248 -0.007047293 0.013142873 -0.014364282 -0.05942263 0.018611547 -0.0064936383 -0.012612901

policy.mlp_extractor.policy_net.2.weight f4 [64, 64]
00000000: 5836 033f 3f22 7bbe 6762 91be 8f19 92be
00000010: d7a3 163e a209 2fbe d083 e3bd 2687 783e
00000020: a106 f23e b168 793e b121 4bbe 66d7 453c
00000030: dee9 c8bd 09d6 45bd 5441 8abd d82a 56be
00000040: 059e 063e e83e 933e cb81 9d3d 1efa 733e
00000050: 76bb 4e3e 3606 09bf 8c37 ccbe e1c7 94be
00000060: b459 833e 3e1a 4a3e dfb8 e2bc 3980 c6bc
00000070: 15b0 383e 5093 9fbe c4b8 2f3e ae91 353d
00000080: c011 12be aef5 8bbd 160b 1d3e fc65 4ebe
00000090: 239a 64be 4ff2 09be 666f d73c 2d08 133e
000000a0: 14c9 7bbd 2c15 17bd 7594 3ebe d7d0 d83d
000000b0: f628 6ebe b057 3abe f0d8 a8be 8b0a f8bd
000000c0: 57b5 e8bd f013 9b3e 7ef3 4c3e 9607 eebb
000000d0: 015d 14bd 2a1d 54be 04bc 973d 4797 35be
000000e0: 8454 a6bd 0573 a4be baff bf3d 9e1b 6bbd
000000f0: bc82 a23e 8f09 8b3e 6c76 52bd 7fa0 5e3e
00000100: 1ace cf3d e823 fdbd 469b 59be ebed 0fbe
00000110: ede2 903c 4531 d0bd f947 abbd 5c08 1a3e
00000120: dd0d 473e f8f1 9cbe 3fb9 ccbd d647 213f
00000130: b4ae 88be 6c2d f5bc a43d ab3c 8061 0cbe
00000140: 2a3b a13c ff58 b7bd 9e53 fa3d 9ca3 6fbe
00000150: 2e18 743e 7622 42be 6b63 693d fa16 ac3d
00000160: 90e5 843e fa73 4c3e da5f 7ebd 473b 69be
00000170: 94a7 a73e 0f77 adbe 530c 40be 6434 01ba
00000180: 7296 29be 0e4d e4be feee c13d ec88 8cbe
00000190: 0c6b 40bd fc41 8b3e da88 be3e 0518 703d
000001a0: 4e4b 8abe 9dd7 d9bd 81f3 95be 20f6 e03d
000001b0: 8b6e e03e 7974 543e 61f5 8cbe ada9 1e3e
000001c0: 891f 1ebe c63f 383e 418b 14be ebf3 77be
000001d0: f0b1 c3bd 19c8 4cbc be51 2cbe ff36 543d
000001e0: 86f0 e43d 5cac c23c 5636 373e a3e9 3bbe
000001f0: a2fb 853d bf78 cebc 1c8a a1bd c148 2d3e
00000200: 56c0 e53d 784f 003f 1be7 b33c 8544 0abd
00000210: 5616 80be ad69 0f3e 8f42 fa3d c7a1 eabe
00000220: b01f ad3d 9db4 0cbe 7b46 2a3c ee05 993d
00000230: a14a af3e cf6b 623e 8a14 033e 4c5e 8ebd
00000240: 3b9f 49be aecb b33d 52e1 4d3c cf34 783c
00000250: 9566 74be b2f8 943d c58b ab3e 5f18 673e
00000260: 0eae 8abd ed6c 05be 9be1 a9bd 24ac 1a3e
00000270: ba63 e3be dea9 5f3d 8163 11be 4a8e 8b3c
00000280: 956b 8abe 54ce 3a3e bbf3 06bd 1a1c a23e
00000290: 174f 5a3e 106c cbbe 3547 0abf 501c 8b3e
000002a0: 7284 86bd d58c 3e3e a140 3e3e 8090 a4bd
000002b0: 238f 933e 7578 e53d 253c 9c3d 5191 3c3e
000002c0: 3216 893d cfcb 29bc 341f be3d 4c4f 31bd
000002d0: e790 953e 6ffd b23d 9816 603b 01af 96be
000002e0: 0357 19be af53 d2bc 62ba 3bbd 3cd6 c63e
000002f0: d04c 87bb dd11 ebbe cb57 423e 5d54 95be
00000300: 5c4a b13e 95ff 91be f0b3 603e e638 b0bc
00000310: ae81 5f3e ab4d a53e 0280 d03d 948c 03be
00000320: 17d9 8a3e 488c 83be a8ef 36bd 648a 363d
00000330: ce51 4ebe 54eb 0c3e a533 2d3e 820e 1fbe
00000340: e742 413c c403 d63d 6001 c8b9 6d44 42bb
00000350: bf0e 15bd 0222 6cbe de3f 1cbe 96e6 633e
00000360: a3d1 183d 3ac9 f4bc 89da 643e ef53 78bd
00000370: dfd1 2d3d 039c 30be c2a3 f23d f855 463d
00000380: 89bf 08bd 44d1 d9be 9421 1cbd bf9f b13c
00000390: 20d9 a4be cc0b 67be 11a2 903e ba1e 813c
000003a0: 24ed 533e 8742 2bbe a9bb 54be 9bb1 a13e
000003b0: 0276 44be 4135 a5be 7341 a3be a985 f2be
000003c0: a502 89be 22a3 78be d267 f3be 0ab1 6dbe
000003d0: c94c 01be 46cb 78bd 5d76 aa3c 0ac1 923d
000003e0: df0f 1c3e fc8a db3d 2082 833e e7d1 31be
000003f0: 41a7 8fbd f745 703e 5d38 18be fe2c b33e
0.51254797 -0.24524783 -0.28395388 -0.28535125 0.14710937 -0.17093518 -0.111091256 0.24270305
0.47270682 0.24356343 -0.19837071 0.012075281 -0.098102316 -0.048299823 -0.067507416 -0.20914781
0.13146217 0.2875893 0.07690772 0.23825881 0.20188698 -0.535251 -0.3988613 -0.29058746
0.25654376 0.19736573 -0.027676044 -0.024231063 0.1803592 -0.31167078 0.17160326 0.044328384
-0.14264584 -0.06833969 0.1533626 -0.20156091 -0.22324423 -0.1347134 0.026298236 0.14358588
-0.06147106 -0.036885425 -0.1861132 0.10586708 -0.23257813 -0.18197513 -0.3297801 -0.12111386
-0.11362713 0.3028865 0.2001476 -0.007264088 -0.036221508 -0.2071425 0.07408908 -0.17733489
-0.08121589 -0.32119003 0.09374948 -0.057399385 0.31740367 0.2715573 -0.051382467 0.21740912
0.10146733 -0.12360364 -0.21250638 -0.14055602 0.017686332 -0.101656474 -0.08363337 0.15042251
0.19438882 -0.30653358 -0.099962704 0.6300024 -0.26695788 -0.029928885 0.020903416 -0.13709068
0.019681532 -0.089525215 0.1222298 -0.23402256 0.23837349 -0.18958458 0.056979578 0.0840282
0.25956392 0.19966117 -0.06210313 -0.22776519 0.3274504 -0.33879897 -0.18754701 -0.0004928766
-0.16561297 -0.44590038 0.09469412 -0.27448213 -0.046977088 0.2719878 0.37213784 0.058616657
-0.27010578 -0.10636828 -0.2928734 0.109844446 0.43834338 0.20747556 -0.2753096 0.15494414
-0.15441717 0.17993078 -0.14506246 -0.24214141 -0.09555423 -0.012498879 -0.16828057 0.05181026
0.11178689 0.023763828 0.17891821 -0.18350844 0.06542136 -0.02520406 -0.078876704 0.16922285
0.11218326 0.5012126 0.021960786 -0.03375675 -0.2501704 0.14005156 0.12219726 -0.4582655
0.084533095 -0.13740773 0.01039278 0.07471834 0.34236625 0.22111438 0.12800804 -0.069515795
-0.19689648 0.08779083 0.012565928 0.015149309 -0.23867257 0.07273997 0.33505073 0.2256789
-0.067714795 -0.13029833 -0.08294984 0.15104729 -0.44412023 0.054605357 -0.14198114 0.017035622
-0.27035204 0.1824277 -0.032947283 0.31662065 0.21319233 -0.39730883 -0.54014903 0.27170038
-0.06568231 0.1860841 0.18579341 -0.08035374 0.28820142 0.11204616 0.07628659 0.18414809
0.066936865 -0.010363533 0.09283295 -0.043288514 0.29212114 0.08739745 0.0034193154 -0.29430392
-0.14974599 -0.02567467 -0.045832045 0.38835323 -0.00412903 -0.45912066 0.18978803 -0.29165927
0.34627044 -0.28515306 0.2194364 -0.021511506 0.21826813 0.32285818 0.101806656 -0.12846595
0.2711875 -0.25692964 -0.044662148 0.044565573 -0.20148394 0.13761646 0.16914232 -0.15532878
0.011795736 0.10449937 -0.00038147997 -0.0029642836 -0.036391016 -0.23059848 -0.15258738 0.2225593
0.0373093 -0.029881109 0.2234899 -0.06062692 0.042436477 -0.17247014 0.118476406 0.04842183
-0.033385787 -0.4254247 -0.03811796 0.021682618 -0.32196903 -0.22563094 0.28248647 0.015761722
0.2069593 -0.16724597 -0.20774712 0.31580815 -0.19185641 -0.32267192 -0.3188587 -0.473676
-0.2675983 -0.2428098 -0.47540146 -0.23212066 -0.12626947 -0.06074073 0.020808393 0.071657255
0.1524043 0.107198685 0.25685215 -0.17365228 -0.07014323 0.2346419 -0.14865251 0.34995264

policy.mlp_extractor.policy_net.2.bias f4 [64]
00000000: 9c55 463c 19f2 123d 30a5 13bd 4dfd e53c
00000010: 05ef df3c f4dd bcbc 0485 71bd 43e1 0d3d
00000020: 2b5c 0dbc 0ed5 87bb 7f62 3abd 246b 3a3d
00000030: 20dd 75bc 2f81 4cbc 86b0 7c3d 35a9 e1bc
00000040: fb8d 9c3d 4782 c9bc 0a2d ffbb 5f43 da3c
00000050: a5fa bfbc a478 bfbc 4bb4 5f3d 2338 853d
00000060: 1c81 65bd c2ec 333d 01da e23c d130 7d3a
00000070: 92e7 523d 1944 8cbd da41 83bc 91c1 18bd
00000080: bdac 553c dd71 72bc 8b1d 62bd 94e8 2a39
00000090: 9bd8 8c39 fe34 0c3d a0ea 10bd f049 b3bc
000000a0: 6589 57bd a977 593d ed9e 02bd b6b9 e3bc
000000b0: c669 61bc c260 90bc f110 a4bc 056b ca3d
000000c0: f8fb 02bd da6c aabd 0f84 9a3b 9fb5 4d3c
000000d0: 8755 2c3c 7077 a53c 7184 3a3d e992 56bc
000000e0: 075c 7ebd 436f e63c 5ad7 343d 2914 893c
000000f0: 44ba 0dbc f657 c53c 90e7 11bc cdc2 e5bc
0.012105372 0.035875414 -0.036046207 0.028074885 0.027335653 -0.023055054 -0.058964744 0.034638654
-0.008627932 -0.004145271 -0.04550409 0.045512334 -0.015006334 -0.012481972 0.061691783 -0.027546505
0.07644268 -0.024598254 -0.0077873515 0.026643453 -0.023434946 -0.023372956 0.0546153 0.06504848
-0.05603133 0.04392696 0.027691843 0.00096584583 0.051490374 -0.06848926 -0.016022611 -0.037293974
0.013041672 -0.014797655 -0.055203956 0.00016299105 0.00026864265 0.034230225 -0.035380006 -0.021885842
-0.052621264 0.053092632 -0.031889845 -0.027798515 -0.0137581285 -0.017624263 -0.02002761 0.098836936
-0.031978577 -0.08321543 0.0047154496 0.012555509 0.010518438 0.020198554 0.045536462 -0.01309655
-0.062099483 0.028129226 0.044150688 0.016733246 -0.008650366 0.024089795 -0.008905306 -0.02804699

policy.mlp_extractor.value_net.0.weight f4 [64, 10]
00000000: 4ac9 26bc 5f9b c7bc ad57 c3bd ea02 663e
00000010: 7464 59ba cf69 0d3e 9c2b 08bf 048f abbd
00000020: 61fb fdbe 74c5 cfba fde2 003e 8632 363e
00000030: 87a1 e7bd bee7 993e bf93 273d 9e01 63be
00000040: 5f86 c83c 976b 23bb ad44 ac3e e99d 813b
00000050: 3f3a d83d 7529 a8be ffb0 d33d 0600 9ebb
00000060: ccdb b53c 44b0 c03e 0bce 9ebe 8ead 47be
00000070: 2f10 fcbd 14f4 a6bd 82d4 a4bd b829 7bbd
00000080: 148f d33e 2c14 0abe dc7f 933e e3c5 8ebe
00000090: d7b2 abbe b5ee 2b3e 7740 0bbe 4e69 cebd
000000a0: 8aa4 1c3d c05d 273d 38db 03bd 76f5 a1be
000000b0: dc79 85be 0b8d 0dbd 3f83 93bd 887b c63d
000000c0: 9019 d53d e460 4bbd 74c9 30be 653d abbe
000000d0: 8429 89be c8c1 05bd 24be 113e 3de9 f9bc
000000e0: a2a2 87be 9d77 943e 37b3 86bd 7022 2f3e
000000f0: 5a32 133e f31f 913d 207d babe e315 413e
00000100: f85d 0cbe f6d5 fbbd 2c40 f43c 724e 523e
00000110: 74d4 35be d312 423d 6669 3b3e 4917 1cbe
00000120: 360d 78bd 28ea 9aba 2650 a73e b012 2dbe
00000130: f0ef 043e 8bd4 fd3d 786d 693d cd0e 5c3e
00000140: e9ab 46bb 5852 45be ec77 91bc f5d8 b5be
00000150: 6e21 b4bd 7591 f7bd 2cfe dbbc b628 5abe
00000160: 88d9 d43d 32da f23d 71dc 87be ea94 98bd
00000170: 6f95 433d 5c5c 8cbe b374 513e db53 c93c
00000180: 2868 a83d c7d3 5e3c 12d9 e93c 707b 64be
00000190: 4ab1 64be 835e 903c a110 923e 8e87 d53d
000001a0: 70de d8bc a288 333e 165d 643e 0073 babe
000001b0: a9d5 7bbe e369 203d d202 203d aa8b edbd
000001c0: 7d8e 6ebd 381a 803e 33a8 a4be e3a0 713e
000001d0: 21b2 8ebc 7c70 26be e3b3 c43e 1e12 273e
000001e0: 486e e53d bb15 b03c 802c 663e 7267 c9bd
000001f0: 009a b7bc 4354 703e a779 59be e3aa 08be
00000200: c6e6 07be f905 08be 099d 8c3e 3cb7 c43d
00000210: 37b6 303c bb30 1c3e 4d54 07be 1bc8 05bf
00000220: 0748 533b 51cd 19be caca 2ebd 8bb6 9fbe
00000230: 8172 ecbc 26fe ed3d f19b 443e 867a 303e
00000240: 6a9b cb3e 6e98 99be 8e82 63be 305a eb3d
00000250: a586 403d 920a 3d3d 3e1a b3bd 25d9 0cbe
00000260: 5315 88be 29e7 87be aca6 863e 39e5 b8bd
00000270: d072 b23d 8659 3ebe c636 683e 60f9 16be
00000280: d05a 81be 2b0b c33e f637 e13d e959 803d
00000290: 3b1d 97be 40c1 d03c 6603 90be fde8 3e3e
000002a0: c4b9 123e 12a4 983a 5b06 e9bd 676e 88be
000002b0: cc44 893d 0aec 07be 06f1 893d 2cc4 e23d
000002c0: 41a7 b93e b2fb fdbd 9668 fe3c 7e25 aabe
000002d0: 0dfb 333d 00ed d1be 1581 d53e 8abe 473e
000002e0: 9da1 34bd b1e0 f9be 2c29 4d3d 4936 883e
000002f0: dc25 393e bd17 0a3d c2d4 713e 90b0 b53c
00000300: 0ff6 5abe c5bf d8be dfeb 413c 1475 7e3e
00000310: 094c e9bd d06c 6abd dd48 e33d 310c 68bd
00000320: dd56 94be fd92 813e 755d 1f3e f632 043e
00000330: 863f 3f3d ce41 4e3e ca3e bbbd 0f8d fbbd
00000340: aed0 2a3e 8066 9d3d 2699 083f bf76 29be
00000350: c903 d7be 4b62 663d 83e6 3ebe efcc a03c
00000360: c4a5 c5bc 7489 eebd 5cad abbd 51bd 823d
00000370: ce68 d03c 460e f7bd 8399 113e ee73 f0bc
00000380: 7372 c83d 8900 c3be d389 f0be 7149 4cbe
00000390: a2a5 ad3d c880 1d3e 4017 4ebe d725 453c
000003a0: 9010 42be f776 383e 862e 93be f8d8 12be
000003b0: b2c8 32bd 4031 acbe 0716 993d 0c9e 103d
000003c0: d5d7 113e 1174 bbbd 1a09 fa3c 3be8 2abe
000003d0: 1173 6a3e 4abd e3bd cb07 303d 06c3 49be
000003e0: 7b28 18bd aa4a 7d3b cdc3 c3be 2833 83bc
000003f0: 15d2 353e c908 63be 8c28 353d e430 33be
-0.010179827 -0.024366079 -0.09538207 0.22462049 -0.0008292862 0.13809894 -0.5319154 -0.083768874
-0.4960585 -0.0015851692 0.12586589 0.1779271 -0.11310106 0.30059618 0.040912386 -0.22168586
0.024478136 -0.0024935955 0.33646145 0.003955592 0.105579846 -0.3284413 0.10336494 -0.00482178
0.022199534 0.3763448 -0.31016573 -0.194998 -0.12307774 -0.08152023 -0.08048345 -0.061319083
0.41320097 -0.13484257 0.28808486 -0.2788535 -0.3353488 0.16790278 -0.1359881 -0.10078679
0.038242854 0.04086089 -0.032191485 -0.31632584 -0.26069534 -0.034558337 -0.072027676 0.096915305
0.10405266 -0.04965295 -0.17264348 -0.33445278 -0.26789486 -0.032655507 0.14232689 -0.030506724
-0.26491266 0.28997508 -0.06577151 0.1710298 0.14374676 0.07086172 -0.36423588 0.18856005
-0.13707721 -0.12296669 0.029815756 0.20537737 -0.17756826 0.047381233 0.18301925 -0.15243258
-0.060559474 -0.0011819052 0.32678336 -0.1690166 0.12982154 0.12394055 0.056989163 0.21490021
-0.0030314869 -0.19269693 -0.017757379 -0.35517088 -0.08795439 -0.120882906 -0.026854597 -0.21304592
0.10393053 0.11858024 -0.2653537 -0.07450278 0.047749933 -0.27414215 0.20454673 0.024576118
0.08222991 0.013600296 0.02854589 -0.22312713 -0.22333255 0.017623192 0.28528312 0.10426246
-0.026473254 0.1753259 0.22301134 -0.36415863 -0.24593224 0.03916348 0.03906519 -0.115989044
-0.058241356 0.25020003 -0.32159576 0.2359653 -0.017418923 -0.16253847 0.38418493 0.16315505
0.11202675 0.021494737 0.22477913 -0.09834184 -0.0224123 0.23469643 -0.21237813 -0.13346438
-0.13271627 -0.13283528 0.27463558 0.09605262 0.010785631 0.15252964 -0.13215752 -0.5225846
0.0032238977 -0.15019728 -0.042673863 -0.31193957 -0.028863193 0.116207406 0.19200112 0.17234239
0.3976701 -0.29999107 -0.22217771 0.11491811 0.047003407 0.04615266 -0.0874524 -0.13754709
-0.2657877 -0.2654355 0.26299036 -0.09028096 0.08713305 -0.18588838 0.22677144 -0.14743567
-0.25264597 0.38094458 0.10997002 0.06267149 -0.2951449 0.025482774 -0.28127593 0.18643565
0.14328676 0.0011645576 -0.11378165 -0.2664673 0.06702575 -0.13273636 0.06735425 0.11072573
0.36260417 -0.12401523 0.03105573 -0.3323173 0.043940593 -0.4100113 0.41700044 0.19506279
-0.04409944 -0.48804238 0.050088093 0.26603916 0.18080848 0.033714045 0.23616317 0.022178918
-0.21382926 -0.4233381 0.011836021 0.2484935 -0.11391456 -0.057232678 0.11097882 -0.05665225
-0.2897252 0.25307456 0.15562995 0.12910065 0.04669144 0.2014229 -0.091428354 -0.12282764
0.16681167 0.07685566 0.53358686 -0.16549204 -0.41995075 0.056246083 -0.1864262 0.01962897
-0.024126895 -0.11647311 -0.08382675 0.063837655 0.0254406 -0.12063269 0.14218716 -0.029352155
0.097874545 -0.38086346 -0.46980152 -0.1994989 0.084788576 0.15381157 -0.20126057 0.0120329475
-0.1895163 0.18014131 -0.28746432 -0.1434058 -0.04364843 -0.33631325 0.074749045 0.035306975
0.1424249 -0.09152997 0.030521918 -0.16690151 0.22895457 -0.111200884 0.042976182 -0.19703302
-0.03714798 0.003864924 -0.38235322 -0.016015604 0.17755921 -0.2217132 0.04422812 -0.17499119

policy.mlp_extractor.value_net.0.bias f4 [64]
00000000: f47b 36bd 7321 4a3d b81f 9abd 40c2 b23c
00000010: f082 fdbc 2b3b 383d 55bb 02bd 9d8f 893c
00000020: 58f3 0cbd d845 4abd 5abf ed3b 6c20 36bc
00000030: 28b7 333d 782a 41bd 7f2e eabb 037f 81bc
00000040: 27b8 383c fd00 6a3b 37a6 123d 48cd b03b
00000050: 9cbf 8f3c c3f7 a83c 58a8 b43c 96b4 efbc
00000060: 055d fbbc 2fe2 4a3d 4efd 273d ec52 363c
00000070: d672 543c 9b09 793d 84a1 a0bc e4e3 583d
00000080: b2cf 8b3d af37 13bd 0aa5 67bc 5edb b1bc
00000090: 58be 513a fdfe 9bbc 0ded 0cbd db1b 4fbc
000000a0: 4519 2e3d 2a19 dbbc cb8c 0c3d 7167 0e3d
000000b0: f9a4 29bd 5ed9 86bd 39bc 7dbd 4777 df3c
000000c0: 3f2d 913c 9992 a4bd 6020 18bd 7f55 f33c
000000d0: 5904 8d3d 9d55 d8bd 8e13 62bd 7578 65bd
000000e0: a53e 7abd 233a 12bd 519e 233d 7cde 88bc
000000f0: 9fa8 d23c fd54 143d 0f81 743d 2c8c 82bd
-0.044551805 0.049348306 -0.07525581 0.021821141 -0.030946225 0.044978302 -0.031916935 0.016792113
-0.03441176 -0.049383014 0.007255477 -0.011116128 0.043875843 -0.047159642 -0.007146656 -0.015807634
0.011274374 0.0035706155 0.035803046 0.005395565 0.017547421 0.020625954 0.022052929 -0.029260915
-0.030684004 0.04953211 0.041013055 0.011128169 0.012966832 0.060800176 -0.019608267 0.05295171
0.06826724 -0.035941776 -0.0141384695 -0.021711048 0.0008001081 -0.019042486 -0.034405757 -0.012640919
0.042504568 -0.026745398 0.03431396 0.03476662 -0.041417096 -0.06584428 -0.06194708 0.027278556
0.01772177 -0.08035774 -0.03714025 0.029703854 0.06885595 -0.105632044 -0.05519443 -0.05602308
-0.0610949 -0.035699975 0.039945904 -0.016707651 0.02571517 0.036213864 0.059693392 -0.06374392

policy.mlp_extractor.value_net.2.weight f4 [64, 64]
00000000: f1c3 c4be f444 b0bd 23ea 8cbd 1ed3 523e
00000010: de2b 8abc c211 e4bd 754f ddbd fd40 81be
00000020: 8f9d 603d c520 e93b 0dca 973e bb06 ec3d
00000030: 0622 cd3d 1c7d 0b3e c5cf 163e 38ba 12be
00000040: efe1 21bd b094 823d 15c4 62be e026 edbd
00000050: d13f 223e 5c01 b53d 3c39 f4bd 51c3 d03b
00000060: b88c 89be d895 4d3e 8328 143e 7966 34bd
00000070: 5f96 783e 6f99 213e 142d b1bd 7590 c43e
00000080: 99b1 2bbd c65e aebe 5c01 a13e dcfc 1d3e
00000090: 92d4 9cbd 49f0 8d3d 71e1 b23d b1b2 25bd
000000a0: a2c4 523e 0624 403d 8a3f dd3d 5dd3 963e
000000b0: 510a 933d 6ece 943e 45c3 34be 0b7a 283e
000000c0: 2c32 77bc 77d6 b13d 1692 7d3e 3823 a3be
000000d0: 881e 77be 9ae5 9b3d bbfb fabd bf7b 5ebe
000000e0: 4f8d dabc 9535 893c 6b63 e93d 1cfa f73d
000000f0: 64f6 2f3d c90d 09be 58d6 a2be 96c3 463e
00000100: c807 ba3e 5b66 3bba 5fbb 70bd 23aa 9e3e
00000110: 0f33 4fbd 455b 013f 82b3 4e3d d977 dc3d
00000120: e276 e83d c095 bf3c 691e 5b3e 70fd a1bd
00000130: 046c 29be 247b aabe d415 dcbc cc02 9bbe
00000140: 48f5 19be aff7 a93d 5e5c 593d 4fc1 8dbd
00000150: 86b5 b1bb 89b0 21be 3526 8e3d d966 5b3c
00000160: fab1 0ebd c1b1 ca3c 9db9 863e 3b30 013e
00000170: c378 10be e442 19bf f611 763c 5fde cabd
00000180: ea27 fd3c 968c 2dbd 80cf 5cbd 6ef6 15bd
00000190: c40c b1bd 66e9 e73d 76fc 173d f8af 9f3e
000001a0: f99b 883e b2ef ee3d dabd bfbd 1d85 623d
000001b0: 0662 023e 82b9 903e f09c 903d 6893 fa3d
000001c0: 45d7 4ebe d313 d73c 688e 973d dc64 843e
000001d0: b23c 18be 5d81 6abe 3eff 89bd ba03 9b3d
000001e0: f2bc a83e 059b 653b 770d 353e 80fd 4bbc
000001f0: 5136 6dbd fd53 94bd 3965 b83a 581a 2d3e
00000200: 9777 333e ce27 57be 0667 4e3d 0683 fc3d
00000210: 2e87 77bd a98a 69be 34d8 b43d 19cf d23c
00000220: 55cb e63c 9fc3 29bd 3e10 86bd b3df c6be
00000230: a806 6ebe c656 8fbe 55cc da3e b974 bbbe
00000240: 1139 e23d 37a7 923e 8ffb 8f3e 8f7d c33c
00000250: c8ba d1bc 93ec 943d cc17 363e fd3d b3be
00000260: 1cfc 6ebb dca7 383d 9eaa 613e 0d5a e3bd
00000270: 8086 ae3c cb74 9f3e fa44 8dbd a945 9d3c
00000280: 1fb2 813d 5ed8 a5bc 1262 f8bd 56d3 b3bd
00000290: bc66 433d ee2b 0cbb 8d52 663c e122 c6bd
000002a0: 0dbe 43be 6e96 06be 99ca c03d 5ebe 62bb
000002b0: 626d 3d3e 4f61 2ebe 4643 253c c487 0cbe
000002c0: abec dbbe 42ad b83d c43b 8d3b e82a 22be
000002d0: 070a a3bd 7627 0abe 364e 013c 38f8 2b3e
000002e0: bd19 ce3c dbe6 8ebe 65cc 47be 1e17 d5bd
000002f0: aa20 8d3e 7fbf 22be 932f f8bc 8a2a c13d
00000300: 47c5 36be a91b 66be 01ea 2cbe 093c 10be
00000310: 54f9 6b3c 623c 2f3d afd9 2ebe d214 c03d
00000320: 4207 38be 5cf6 043e c801 233e 3033 e83e
00000330: 7c7c 69be d737 11bd 5677 8d3e e263 783e
00000340: 97a2 96bd 1d1a 583e ab29 b0bd 1c7d ce3d
00000350: 41fa c03e bad4 3dbe 8556 1abd 638f e2bd
00000360: eade be3c 07fa bebd d180 ebbd 028e a2bd
00000370: e662 223e 015e 60be 0350 a2be 1855 11be
00000380: fcf1 563d 21f0 e4bd 1857 633d 83de c3be
00000390: 3896 eb3d bb55 54be 9399 0ebc 68c6 213d
000003a0: 8c25 7fbd 9099 a7bb 2d14 76bc 44a9 3d3d
000003b0: f41b 0e3f 8f18 923d eb1c c4be 6ef6 6cba
000003c0: 65f1 2ebc 3954 13be f31e c3bd 2574 98bd
000003d0: d8cb 293e 2c26 ee3d 8b45 213e a1f2 7a3e
000003e0: c30e b5bd 11dd c53c 45a4 38bd 0ecb 7f3d
000003f0: 5c2a 4f3b cff4 49bd 5706 2a3e 1d51 c9bd
-0.3843074 -0.08606902 -0.068805955 0.20588347 -0.01686662 -0.111361995 -0.10806171 -0.25244895
0.05483776 0.007114502 0.2964634 0.11524721 0.10016255 0.13621944 0.14727695 -0.1432885
-0.039522108 0.06376016 -0.22145112 -0.115796804 0.15844657 0.0883815 -0.11924979 0.00637094
-0.26865172 0.20076692 0.14468579 -0.044043038 0.24276112 0.15781187 -0.08651176 0.38391462
-0.041917417 -0.3405668 0.3144635 0.1542849 -0.07657732 0.069305964 0.08734406 -0.040453617
0.20582822 0.046909355 0.10803135 0.29458132 0.07179702 0.29063743 -0.17652614 0.16452806
-0.0150876455 0.08683484 0.24762759 -0.31862807 -0.2413274 0.076121524 -0.12255045 -0.21726893
-0.02667871 0.016749183 0.113959156 0.121082515 0.042959586 -0.13384165 -0.31804156 0.19410548
0.36334062 -0.0007148736 -0.05877244 0.3098918 -0.050585803 0.5052989 0.05046416 0.107650466
0.113508 0.023386836 0.2139832 -0.079096675 -0.16545111 -0.33297074 -0.026865877 -0.3027557
-0.15034974 0.08299195 0.053066604 -0.06921636 -0.0054232506 -0.15789999 0.06940881 0.01339122
-0.0348377 0.024742963 0.26313487 0.12616055 -0.14108567 -0.5986769 0.015018931 -0.09905695
0.030902822 -0.0423704 -0.053908825 -0.036611967 -0.08645013 0.11323814 0.037106 0.3118894
0.26681498 0.11666812 -0.09362383 0.055302728 0.12732705 0.2826653 0.070611835 0.12235147
-0.20199306 0.02625457 0.07400209 0.258582 -0.14866903 -0.2290091 -0.06738137 0.0756907
0.32956654 0.0035035026 0.17680918 -0.012450576 -0.05791313 -0.07242582 0.0014068253 0.1690458
0.17526089 -0.21011278 0.05039122 0.12329678 -0.06043165 -0.22806801 0.088303 0.025733517
0.028173128 -0.041446324 -0.06546067 -0.38842544 -0.23244727 -0.2799589 0.42734018 -0.3661249
0.11046041 0.286432 0.2812161 0.023863582 -0.02560176 0.072716855 0.17782515 -0.3500823
-0.0036466187 0.04508196 0.22037742 -0.1110116 0.021304369 0.31143793 -0.06897922 0.019198256
0.06332802 -0.020244773 -0.121280804 -0.087805435 0.047705397 -0.0021388489 0.014057768 -0.096746214
-0.19115467 -0.13143322 0.094136424 -0.003459833 0.18498757 -0.17029308 0.01008684 -0.13723665
-0.42954 0.09017421 0.004310103 -0.1583668 -0.07960897 -0.13491616 0.007892182 0.16793907
0.025158757 -0.27910504 -0.19511564 -0.104048 0.27563983 -0.15893362 -0.030296123 0.09431942
-0.17848693 -0.22471489 -0.1688614 -0.14085402 0.014402706 0.042782195 -0.17075227 0.09378971
-0.17971519 0.12984604 0.15918648 0.45351553 -0.22801393 -0.035453644 0.2763011 0.24256852
-0.0735523 0.21103711 -0.086016975 0.100824565 0.3769093 -0.1853818 -0.037680168 -0.11062505
0.023299653 -0.09325033 -0.11499179 -0.07937242 0.1585804 -0.2191086 -0.3170167 -0.14192617
0.052476868 -0.111786135 0.05550298 -0.382557 0.11503261 -0.20735829 -0.008703607 0.039495856
-0.062291667 -0.0051147416 -0.015019459 0.046304002 0.55511403 0.071335904 -0.38303313 -0.00090394064
-0.01067767 -0.14387597 -0.095273875 -0.07444028 0.16581666 0.116283745 0.15749185 0.24506618
-0.08840706 0.024153264 -0.045078535 0.062449507 0.0031610942 -0.049305733 0.16603981 -0.09829924

policy.mlp_extractor.value_net.2.bias f4 [64]
00000000: bd57 df3c 1f96 00bd 202d 9a3c 629d 1dbc
00000010: 19bd 13bd e61f 8e3c 34a9 f1bc 38aa dc3b
00000020: 6e60 0d3d 7bc9 60bc 6b31 1e3d 226a b4bc
00000030: c9aa 8a3c 5841 263d ed7e df3c c89b af3c
00000040: 704f b8bc 2b0b 9fbc fbdc ffbb a40e 1d3d
00000050: acf6 48bd fec1 f63c 3564 b43a 6973 03bc
00000060: 487d 9e3c 2f4f a13c 71ef c2bc d856 97bc
00000070: b726 49bd 3ac9 51bc be0b 803d d77e 26bd
00000080: 7bb9 08bd f13d ec3c c2a7 20bd 0966 23bd
00000090: 9259 763d e519 0fbd 36ad 95bc 9e24 8fbb
000000a0: 588f e1bc 6f29 0b3d c1df 203d 604b a4bc
000000b0: 6c99 f4bc 4966 d13c 1223 f6bc 62ba 003d
000000c0: e923 053d 7524 1cbd da62 7b3d 4254 bcbc
000000d0: 2df4 33bb d0d8 1a3c 9501 c5bb 0d45 ec3c
000000e0: 56a3 a1bd 11f8 a43c a79e f0bc 9cc9 1abc
000000f0: 2a62 563d aa5f f33c c91f 613c a860 27bd
0.027263517 -0.031393167 0.018820345 -0.0096200425 -0.03606901 0.017349195 -0.029499628 0.006734159
0.03451579 -0.013719912 0.038621347 -0.022023264 0.01692714 0.04058966 0.027282203 0.021436587
-0.022498816 -0.019414505 -0.0078083253 0.03834404 -0.04906337 0.0301218 0.0013762774 -0.008023121
0.019346848 0.019691078 -0.023795815 -0.018474028 -0.049109187 -0.012804324 0.0625224 -0.040648308
-0.033380013 0.02883813 -0.039222486 -0.03989223 0.060144015 -0.034936804 -0.01827107 -0.004368379
-0.027534172 0.03397506 0.03927589 -0.020055473 -0.029858314 0.025561469 -0.03004602 0.03142775
0.03250495 -0.038120706 0.06137357 -0.022989396 -0.0027458773 0.009451106 -0.0060121515 0.02884152
-0.07892482 0.020137819 -0.029372526 -0.0094474815 0.05233971 0.029708702 0.013740488 -0.040863663

policy.action_net.weight f4 [3, 64]
00000000: 4fc3 0e3e ab5c 193e df7d 1fbe ecf2 1f3e
00000010: ac02 073e 5611 24be 545e 25be cb2e eabd
00000020: e87f edbd 8353 f9bd 02fb c4bd 1609 2a3e
00000030: b6ed fd3d 2eab f3bd 264e 0d3e 9fea 09be
00000040: 9a10 213e 6a82 02be 0e9b 0c3e 8009 033e
00000050: 8b2f 13be 350c 15be 53f1 083e 2fbb 123e
00000060: 51b2 06be fc65 893d 6bb6 dd3d 1243 ee3d
00000070: 1572 a53d 579c 23be 0b47 d53d e22a 01be
00000080: 7019 e23d 7af1 fe3d ab61 f2bd eca0 093e
00000090: 7e9a fd3d f625 d2bd 7d9c 0abe fcf9 04be
000000a0: 2ec7 29be 07f9 0d3e d057 28be 6e06 edbd
000000b0: a912 fabd 74e6 00be 3cc7 14be f47e 4e3d
000000c0: c827 0ebe 3590 bd3b ead3 113e 9628 b03d
000000d0: 3f9b eb3d 01b3 dbbd d586 073e c285 07be
000000e0: 4892 f13d 10a8 323e 731f 1a3e 4e66 edbd
000000f0: 6688 09be 0832 113e d79d 1bbe 4dc8 12be
00000100: 86d0 2dbe a135 11be 906d 133e 027a 31be
00000110: 8348 23be e132 113e dd56 2b3e e42b 033e
00000120: e998 d13d dd22 173e 7c30 833c 324f 2bbe
00000130: f334 09be b9f1 0c3e e926 14be 7250 163e
00000140: ebfe 25be 66af 133e 2527 11be 77f5 16be
00000150: 0b4a 1a3e 7746 283e 1023 17be 47b0 10be
00000160: ecb9 153e 046f 393b 1e3d aabd 84ac 0bbe
00000170: 1f73 8d3c 37f3 0d3e cf34 debd 649c 123e
00000180: 571a f4bd 79d3 15be 60e4 5c3d 0733 19be
00000190: 303c 14be 7502 013e 737c 193e 7062 183e
000001a0: 498f 273e 7c35 16be 2a7d 273e 0937 d13d
000001b0: b21b 1b3e 4fa1 bc3d 35e5 da3d 2bc2 ab3d
000001c0: 46f9 183e 8820 b9bd 19c3 10be 020d 5fbd
000001d0: d1ed 00be 328a 053e ed0f 16be 5d1f 173e
000001e0: 3a32 2cbe 934d 34be b69d 28be e890 063e
000001f0: fbf4 253e 19a6 19be efe2 283e e760 273e
00000200: 2886 96bd 9290 b1bd 4d5a b13d 0730 bdbd
00000210: aa94 89bd e885 c63d 8c32 ba3d ee72 8c3d
00000220: e3fb ae3d 3697 8c3d 7cf9 db3d c495 c1bd
00000230: 8238 97bd 3226 843d 1973 99bd 8c5f 8c3d
00000240: d83a b4bd 937f 7f3d 7ad1 20bd 5b7a 7e3d
00000250: 42ae b53d 0e96 ae3d 5657 9fbd 4d80 bcbd
00000260: 7b55 943d 12cd bfbd 93c9 acbd 6cc8 79bd
00000270: 95aa b4bd 0a2a eb3d d068 88bd 76f8 933d
00000280: da0a 90bd 4cd1 7cbd 016c dd3d 90fb 94bd
00000290: 0a66 99bd b189 823d 01e8 573d aeb9 863d
000002a0: 2b54 c33d f438 80bd d658 b53d e37c a93d
000002b0: 8319 8c3d 246f ed3d ee51 d63d c469 c8bd
000002c0: 41d0 2a3d 34f6 bd3d 2ebc a4bd 50b1 b5bd
000002d0: 6376 8ebd facf 5a3d 8406 96bd 16ed 9b3d
000002e0: 6104 223d 8d86 babd 49b1 abbd 2afb 8f3d
000002f0: 9af8 993d 8b54 a8bd 5658 a03d e44a a13d
0.13941692 0.14976756 -0.1557536 0.15620011 0.13184613 -0.16022238 -0.16149265 -0.11434706
-0.11596662 -0.12174132 -0.096181884 0.16605029 0.123988554 -0.11897884 0.13799343 -0.13468407
0.15728989 -0.12745062 0.13731024 0.12796593 -0.14373605 -0.14555438 0.13373308 0.14329217
-0.1315396 0.06708905 0.10825809 0.116338864 0.080784 -0.15977608 0.10413941 -0.12614015
0.11040008 0.12448402 -0.11835035 0.13440293 0.12382983 -0.10261147 -0.13536258 -0.12985986
-0.16579887 0.13864528 -0.16439748 -0.11573492 -0.122105904 -0.12587911 -0.14529127 0.05041404
-0.13882363 0.005785013 0.14240995 0.08601491 0.1150422 -0.10727502 0.13235028 -0.13234618
0.11795479 0.17446923 0.1505106 -0.11591779 -0.13430938 0.14179242 -0.1519693 -0.14334221
-0.16974077 -0.14180614 0.14397264 -0.17331699 -0.1594563 0.14179565 0.16732354 0.12809712
0.102342434 0.14759393 0.01601433 -0.1672943 -0.13399105 0.13764085 -0.14467968 0.14679125
-0.16210525 0.14422378 -0.14175089 -0.14742075 0.15067308 0.1643313 -0.14759469 -0.14129744
0.14621705 0.002829493 -0.083124384 -0.13640028 0.017266808 0.1386231 -0.10849916 0.14317471
-0.119190864 -0.14631452 0.053928733 -0.14960872 -0.14476085 0.12598594 0.1498888 0.14881301
0.16363253 -0.1466884 0.1635634 0.10215575 0.15147284 0.09210455 0.10688249 0.08386644
0.1493884 -0.09039408 -0.14136924 -0.054455765 -0.1259072 0.13040999 -0.14654513 0.14758058
-0.16816035 -0.17607717 -0.16466412 0.13141215 0.16206734 -0.15004767 0.16492818 0.16345559
-0.07349807 -0.08670153 0.08659802 -0.09237676 -0.067178085 0.09693509 0.09091672 0.068578586
0.08544137 0.06864779 0.10740945 -0.09452394 -0.07383825 0.06452598 -0.07492656 0.068541616
-0.08800286 0.062377524 -0.039262272 0.062128406 0.08871128 0.085247144 -0.0778033 -0.09204159
0.072428666 -0.09365286 -0.08436885 -0.060982153 -0.088215984 0.11482628 -0.066606164 0.072251245
-0.0703332 -0.06172304 0.10811616 -0.07274544 -0.074901655 0.06373919 0.05271149 0.06578384
0.09537538 -0.06260863 0.08854835 0.082757734 0.068408035 0.11593464 0.104648456 -0.09785798
0.041702513 0.09275475 -0.08043705 -0.0887171 -0.06956174 0.053421 -0.073254615 0.0761358
0.039554957 -0.09107695 -0.08383424 0.070303276 0.0751812 -0.0821925 0.07829349 0.078756124

policy.action_net.bias f4 [3]
00000000: 8196 f23c 16ad d03c 87f4 91bd
0.029612781 0.025473159 -0.07126718

policy.value_net.weight f4 [1, 64]
00000000: 019a af3c 2c3e 46bd d1be 823d 2222 7f3c
00000010: 42be 0fbe 4651 183d 1a6e 1bbe 8abb 643d
00000020: e9b5 433d 48fe 2d3a 55a1 fb3d bb96 5cbd
00000030: edad 96bd ce34 8a3e 6e15 6f3e 65ea 053e
00000040: a5cf 91be 6c50 2abd 92d1 4bbc 51d3 663e
00000050: 5930 94be 6da9 843d 8153 7bbe abb5 393e
00000060: 8032 8e3d 96a4 af3d ef9c 9ebd df7e 67bd
00000070: 930b 90be dd6a d1bd 3f8b dc3d f1bf d8bd
00000080: fda7 00be 8fa1 e83d 8106 4dbd 89c1 37bd
00000090: 00c0 753e 4096 0ebe 83a0 eebc aa86 99bd
000000a0: a05d 3a3e c5d7 b33d 878e 7c3d 1191 12be
000000b0: 728c cebd bba3 873e 2d44 b9be 5691 1f3d
000000c0: 87d1 f93d f7e1 bbbd 6bdf ca3d 5d66 a2ba
000000d0: 223d 11be d54b f63d f563 1ebc 849b e53d
000000e0: 73cc 56bd 95ce e6bc 8956 37be b4f8 4dbe
000000f0: 201a f03d d333 0d3c c83a 843d 8590 43be
0.02143574 -0.048399135 0.063840516 0.015572103 -0.14037421 0.037186883 -0.15178719 0.055842914
0.047780905 0.0006637317 0.12286631 -0.053854685 -0.073573925 0.26993412 0.23348019 0.13077696
-0.28478733 -0.041580603 -0.012440102 0.22541548 -0.28943136 0.06477628 -0.24543573 0.18135707
0.06943226 0.08576314 -0.077447765 -0.056517478 -0.2813383 -0.10225461 0.107687466 -0.10583485
-0.12564082 0.1135894 -0.05005503 -0.044862304 0.23999023 -0.13924503 -0.029129272 -0.07496388
0.18199778 0.08781389 0.061659362 -0.14313151 -0.100853816 0.26492104 -0.36184826 0.038956963
0.12198167 -0.09173959 0.09905895 -0.0012390126 -0.14183477 0.120261826 -0.009667386 0.11211303
-0.05244107 -0.028174678 -0.17904104 -0.20114404 0.11723733 0.008618313 0.06456524 -0.19098099
